models/03_pytorch_computer_vision_model_2.pth (torch, 35275 bytes, 10 tensors)

conv_block_1.0.weight f4 [10, 1, 3, 3]
00000000: 801a 863e 4db1 503e 2b22 e1be 2aca 5c3e
00000010: e686 383e 296a e73c 64c9 c1be 353e 983d
00000020: a512 ab3e 7ccc a0be 2c39 cf3e 2f5a 94bd
00000030: 050e b53e dbc8 c93e 6c79 173d b9f3 0cbd
00000040: 2d09 7d3e 3036 253a feba 3fbe f606 6fbd
00000050: 7d56 57bd 3378 20bf 773b 25bf e0df 3e3e
00000060: 9433 4ebf 48c2 29bf 438a babd 0e65 47bf
00000070: 7864 81bf 3332 27bf f2c2 883e bc88 2fbf
00000080: 5d93 823e 7db3 8a3e 3cf4 1ebd aa21 d63e
00000090: c7e7 dabd 403a d43e 85ce 7fbd bd17 c3be
000000a0: 4a9a d83e 9858 83be 31ab 2ebe b472 c13e
000000b0: f4a5 463d 0ed5 17be 906b 3c3e 1a78 5e3d
000000c0: d040 2a3e 7515 53be 11e0 a9be d619 03be
000000d0: b06c 83be 4fd6 813e cb04 773e d090 403e
000000e0: f8de 583d 3e17 7d3d fa4e 2b3e 7e7f 8bbe
000000f0: 72a9 6abd 196f fdbe d4d7 86bd 4c7c 07be
00000100: e10c e0bc f09c 68be 2480 9b3e fc36 91be
00000110: b704 afbe b8b3 28be 05e8 d53e 88a2 6a3e
00000120: eef5 fb3e 17e0 a7be af0c b3be f80d 81be
00000130: f2b1 92be 12a8 133e f505 9d3e 19ec c43e
00000140: 0ce2 27be 7b75 68be df68 333e 33ec 09be
00000150: 2a2d 4e3e f52e a5bd 9d77 413e d29c 84be
00000160: 936f 2cbe 2e98 cd3d
0.26192093 0.20380135 -0.4397138 0.21561494 0.1802021 0.028248863 -0.3784896 0.0743374
0.33412662 -0.3140601 0.40473306 -0.07243764 0.3536226 0.39411053 0.03698103 -0.03441212
0.24710532 0.0006302325 -0.18723676 -0.058356248 -0.052572716 -0.6268341 -0.6454386 0.18640089
-0.8054745 -0.66312075 -0.091084026 -0.7788857 -1.0108786 -0.6531097 0.2671123 -0.68568015
0.25503054 0.27090064 -0.03880714 0.4182256 -0.10688739 0.4145069 -0.06245281 -0.38104048
0.42305213 -0.2565353 -0.17057492 0.37782824 0.04849811 -0.14827368 0.18400407 0.054313757
0.16626287 -0.20613654 -0.33178762 -0.12802824 -0.2566886 0.25358817 0.24122922 0.18805242
0.052947015 0.061789744 0.16729346 -0.27245706 -0.057290502 -0.49498823 -0.06584135 -0.13231009
-0.027349891 -0.22716117 0.303712 -0.28362262 -0.34183285 -0.16474807 0.4177858 0.22913563
0.49211067 -0.32788154 -0.34970614 -0.2520597 -0.28651386 0.14419582 0.30668607 0.38461378
-0.16394824 -0.22701065 0.17520474 -0.13469009 0.20134416 -0.08065597 0.18893285 -0.25900894
-0.16839437 0.100387916

conv_block_1.0.bias f4 [10]
00000000: 30ee 5c3d f3c9 643c ef39 773e 7e59 643e
00000010: 354d e63c 607f 52be 1e03 d83d 0e26 cdbd
00000020: e5b2 7ebd ad4d a6be
0.05393809 0.013964164 0.24143194 0.22299764 0.028112987 -0.20556402 0.105474696 -0.10017024
-0.062182326 -0.32481137

conv_block_1.2.weight f4 [10, 10, 3, 3]
00000000: 43a3 d33d 0729 4c3d 7eaf d4bc 1de6 bebd
00000010: b780 03be d1b0 3ebe 0e5a eabd 8a10 33be
00000020: 3ce2 32be a926 8fbd 91b9 873c 3f0b f0bd
00000030: 3226 2dbe 1837 a2be b075 99be 0aa1 0ebe
00000040: 2099 5abe 3e01 8bbe a29a 52bc e42d 353d
00000050: 23d4 ff3d 28dd 883d 86ad 823e a7b3 1f3e
00000060: 9f14 8ebd f98b 343d b9d2 da3d 667c 35be
00000070: dfcd cbbc 6ba8 3cbe 9fc8 3e3c 2c4f 87bc
00000080: 9627 01be 41f8 2e3e 67b5 053d 950f 8f3d
00000090: 0ae4 15be 0978 1fbe 127d 7abd 0ec6 b3bd
000000a0: edaf a4bc 2eea 29be 8ec6 a93d 9f0e e7bd
000000b0: 4f02 87bd 5e16 b83c b8f6 5e3d 25a2 ad3d
000000c0: 70d1 c43d ce38 abbd c517 eb3c 03d2 38bd
000000d0: f10d 53bc 281c a0bd 3d16 323e 9d9f 18bd
000000e0: 09dc 323b 43c9 ed3d 903e 733d a936 6ebd
000000f0: 31b8 9d3d b80a 30bc 2295 7ebd 090b afbd
00000100: 00f3 433d a3a1 3fbc e739 40bd d3b2 b83d
00000110: d706 8b3c 5486 4dbd a2fb 8bbd 09d7 b7bc
00000120: 735e 413d 3369 b9bc 4f8b 1bbd c761 5fbd
00000130: e786 98bd 2f1f 6d3d 3b85 be3d 2b12 d7bd
00000140: 0bb6 11bb 1d09 5f3d 24ac 9c3c 13d0 19bd
00000150: d757 613d c6e4 623d c276 213d d8bc 97bc
00000160: 58a4 e4bc 8aa3 383c 5882 efbc 08bd 58bd
00000170: 9da4 6f3d e003 e13d d84b d6bc 2528 24bd
00000180: a896 de3c abd3 273d d30d 2c3c 8557 463c
00000190: 6d4a 95bd 0cf9 40bd cc90 be3d ec5a 8f3d
000001a0: 791d f5bc 9e2a 9abd bc9c 09bd 9cc6 e7bd
000001b0: 5cf1 09bd dd95 113d 9969 8e3d 22e0 483d
000001c0: a9e2 c4bd 1e3b 9bbd b55d 97bc fa64 cd3d
000001d0: 0982 a23b 98be 59bb d590 5c3d 8948 2ebd
000001e0: 6421 90bd 1cde a03d 3b1e 54bd 6ba5 a6bc
000001f0: dd9f d1bd 8d05 dd3d 9fc0 7f3d cd49 563d
00000200: 857f b3bd abdf f3bd cc79 99bd ae81 7a3d
00000210: 98f9 3c3d ce59 fc3d e5cc 433d a023 da3c
00000220: 7308 6cba 161e a4bd e69f b8bd c4cf c9bd
00000230: 2bfd 313d 615b 54bd fd1a aebc fc97 78bd
00000240: 595d 10bd dfe8 acbd e779 7ebd 8cbb be3c
00000250: 84b9 0fbd 334f 943d c820 00bd e5a8 afbd
00000260: 08fc f9bc 8e40 48bd c4d0 ebbc 9abb d6bd
00000270: 0c4d 973d 2996 86bd df17 313d dade 333d
00000280: 8ffa cf3d 4b9c 79bd 40ae c93d 8b26 6bbd
00000290: acee 013d 4ab2 da3d 5b13 13bc 5f61 b93a
000002a0: a526 aebc 0a10 c7bd 0956 913d 5f4e d6bd
000002b0: 7e02 863d 958b a13d 7412 cc3d 0ab4 cbbc
000002c0: aa67 b1bd 7438 c23c b083 6e3d 46dd d6bd
000002d0: 879e e4bc aef6 8abd a9d1 12bc 7d2f 41bd
000002e0: f114 0bbd 5549 f1bc 0ff4 b4bd 6279 df3d
000002f0: 0cdb c53d c0e4 6dbc 5879 42bc c753 30bd
00000300: b48d afbd 663d bebd f5f8 4f3d 02b3 07bd
00000310: 5850 25bd 0772 063d b492 37bd 7eb6 3fbd
00000320: 9d3b dfbb 39d8 e5bc 30df 39bd 8f44 86bd
00000330: 9053 babd a8fc b73d 862f 35bd 4754 3a3c
00000340: a732 54bd 9b49 783b 54b1 d83d ccdf 873d
00000350: e4fc adbd 3248 353d ee21 e33d c482 d33c
00000360: ca05 8f3d 1b26 d23d 1c2c b3bc 0f0f 063d
00000370: 9ba8 89bd be5d a0bc e713 a43d ed78 5e3d
00000380: fa80 65bd 6d18 adbd 2c7f 93bd 42f6 d4bd
00000390: 619a a6bd 56f3 d4bc 7706 923d 48fa 8f3c
000003a0: 4005 a4bd 3a1c adbd 43c4 343d f8ac afbd
000003b0: 975e b8bc 5d91 3b3d 326d 63bd 400a 90bc
000003c0: 3757 59bc 19fd ecbc ac4b 5ebd 8801 bfbd
000003d0: 8eb8 aebd 3997 69bd 7754 de3d 3dbb 41bd
000003e0: 033c 8fbd 4afc c13c 05aa 113d f740 873d
000003f0: 02f6 a23d 3470 703d c560 d6bd 174c 983c
0.10333874 0.049843814 -0.025962587 -0.093212344 -0.1284207 -0.18622138 -0.11442958 -0.17486778
-0.17469114 -0.06989796 0.016567977 -0.11720895 -0.16909102 -0.31682658 -0.299726 -0.13928619
-0.21347475 -0.27149385 -0.01285425 0.044233218 0.12491634 0.06682807 0.25523013 0.15595876
-0.06937527 0.0440788 0.106847234 -0.17723235 -0.02487844 -0.18423621 0.0116445115 -0.016517244
-0.12612757 0.17086889 0.032643702 0.06985394 -0.14637771 -0.15573134 -0.061154433 -0.0877801
-0.02010342 -0.16593239 0.082898244 -0.112820856 -0.06592237 0.022471603 0.054434508 0.08478192
0.096102595 -0.08360444 0.028697858 -0.045122158 -0.012881742 -0.078178704 0.17391296 -0.037261594
0.0027291796 0.11610653 0.059385836 -0.058157597 0.07701147 -0.010744743 -0.062153943 -0.08547027
0.047839165 -0.011696252 -0.04693022 0.09018483 0.016971035 -0.050176933 -0.068351045 -0.022441404
0.047209214 -0.02263317 -0.037974652 -0.054536607 -0.074476056 0.057891067 0.093027554 -0.10501512
-0.002223375 0.05445205 0.019125052 -0.03755195 0.05501541 0.055393957 0.039419897 -0.018522665
-0.027910396 0.0112694595 -0.029236957 -0.05291465 0.058506597 0.10987067 -0.026159212 -0.040077347
0.027171448 0.040973347 0.010501343 0.012105827 -0.07289586 -0.04711251 0.093049616 0.06999764
-0.02992128 -0.0752766 -0.03359674 -0.113171786 -0.033677444 0.03554331 0.06953735 0.049041875
-0.096135445 -0.07579635 -0.0184773 0.100290254 0.004959349 -0.0033225175 0.05384906 -0.042549644
-0.07037619 0.07854864 -0.051786643 -0.02034255 -0.102355696 0.10792074 0.062439557 0.052316476
-0.08764557 -0.11907896 -0.07493934 0.06115883 0.04613647 0.123218164 0.047802825 0.026628315
-0.00090039446 -0.08013551 -0.09014873 -0.09854081 0.04345433 -0.05184496 -0.021253103 -0.06069182
-0.035245273 -0.08442854 -0.062127974 0.023282789 -0.03508903 0.072416686 -0.031281263 -0.08577136
-0.030515686 -0.04888969 -0.02878607 -0.10485001 0.073877424 -0.065716095 0.043235656 0.0439137
0.10155212 -0.06094007 0.09847689 -0.057409804 0.031721756 0.10678537 -0.008976783 0.0014143399
-0.021258662 -0.09719856 0.07096488 -0.10464167 0.06543444 0.07887951 0.09964457 -0.024866123
-0.086623505 0.02370856 0.058231056 -0.10491423 -0.027907623 -0.06785332 -0.00896112 -0.04716443
-0.03395552 -0.029453913 -0.08835613 0.10911824 0.096609205 -0.01451987 -0.011869751 -0.043048646
-0.085719496 -0.092890546 0.050774533 -0.0331297 -0.040359825 0.03282359 -0.04481764 -0.046804897
-0.0068125264 -0.028057205 -0.045378864 -0.06556045 -0.090979695 0.08983737 -0.044234775 0.011372632
-0.05180612 0.003788567 0.10580698 0.06634483 -0.08495501 0.044258304 0.11090456 0.02581919
0.06983526 0.10261174 -0.021871619 0.032729205 -0.06721612 -0.01957595 0.080116086 0.054314543
-0.056031205 -0.084519245 -0.072019905 -0.103985325 -0.08134914 -0.025994938 0.07130139 0.017575398
-0.08008814 -0.084526494 0.044132482 -0.08577913 -0.022506041 0.045792926 -0.05552406 -0.017583013
-0.013265423 -0.02892928 -0.054271385 -0.09326464 -0.08531295 -0.057028983 0.10855954 -0.047297705
-0.06993868 0.023679871 0.035562534 0.06604188 0.079570785 0.058700755 -0.10467676 0.01859097

conv_block_1.2.bias f4 [10]
00000000: 812b a93e c247 56bd 35be 8dbd f9e8 fb3e
00000010: ec70 dabd e892 34bc 444b 973d 844d 0c3d
00000020: a7f9 2e3e b07e 1b3e
0.33041003 -0.052314527 -0.06921045 0.49201182 -0.106660694 -0.011021353 0.07387403 0.034253612
0.17087422 0.15185046

conv_block_2.0.weight f4 [10, 10, 3, 3]
00000000: d49b 53bd 6042 40be 67c1 8fbd 4300 3fbd
00000010: 5f6b f7bc efa0 a43d fe22 8cbd 16c2 903d
00000020: 3ef2 7a3d 57d2 703d 4c04 b8bd dcf8 22bd
00000030: dcad acbd 75d3 81bd 89a2 773d c09f 02bc
00000040: 1f30 123d 1561 5cbd 95a2 8b3c 3b47 81bd
00000050: 4b22 6b3d 1fdd 3dbd 7b2a e4bc 7810 bebd
00000060: ad34 a33a e2f8 c83d 2d7d 4c3d 1ad8 15be
00000070: 3bc4 453e badd 38bd ae62 d6bd aaac 6f3e
00000080: a8dd ceba d1a3 3ebd d12b 17be 6215 afbc
00000090: d692 4abc 72f0 ea3c 2963 adbc 78e9 173c
000000a0: 8c22 af3d 8f33 babc 5a93 ec3b 3b08 b2bd
000000b0: cdd7 de3d 1c0b 44bd cd11 94bd 8f5f 8fbd
000000c0: c427 943d d113 50bd 5318 d7bd b5d7 e43d
000000d0: a5d3 883d f30d 0d3d 4b38 b3bd d881 163e
000000e0: 275f 5ebe 3dbe 843e 23da ae3d 9369 a53d
000000f0: ee4d e93e 50f7 09be 2cae 393a 8f2b 1e3d
00000100: 24dc d83d 7f00 b03c 5524 00bd 9722 173e
00000110: f034 cabd 4c52 10bc 44cd 84bd b939 84bc
00000120: 8d00 4ebe 7bc5 223d b060 34ba 4ae9 0e3d
00000130: eae7 143e 3a44 e13d 9ba8 c0bc c3c8 44be
00000140: 175b 9d3d 2b2f 3a3e fb17 31bd 8b4a 143d
00000150: 440e bf3d b8d6 303e 55ee 5abd f902 26bd
00000160: 87f4 553e 0df2 d43d b7de a3bd 8a82 59be
00000170: 96fe b9bd 500b 353e 43aa a0be 7ed8 d0bd
00000180: c7ae cf3d b00c eeba 12cc 25bd 797f 6d3d
00000190: 9c42 20bd ae7e 0bbe bd80 4bbd cfa7 9f3d
000001a0: 3430 19bd 8abe bb3c 49ea 6bbd d6bd 6c3d
000001b0: 3733 b23d 00f3 7a3d ab5d 14bd 20bc bcbd
000001c0: d4f2 cdba ed9e 81bd 4d62 c03d 3a16 d8bd
000001d0: 0fc6 4a3d cedc 88be 9a4e 673e bedd 7f3e
000001e0: 1969 64be 2c0c 593f a21c a63e 7a41 80bf
000001f0: 8341 4a3c 3e28 213e f13b 32bd 21ca e93c
00000200: cef5 c7bd 349b e5bd 91d0 f6bd e6f8 cabd
00000210: 5557 833d f4cf 3fbe b2c2 2ebe 16e6 7cba
00000220: 19d0 a7be 97ed b5bd de77 8c3e d42b 053e
00000230: 5be5 563c fbb2 883d 58c0 0d3e 166b 013e
00000240: 0f3e 12bf 0945 09be ef1e 813d 45b7 21bf
00000250: 33f5 663e d508 a23e 6540 abbe 7cf0 34bd
00000260: ca58 ab3d 359d 0dbe a282 a9bd cdb9 983e
00000270: c1e7 80be 7a1d 963e 8b74 df3c 43e6 c9be
00000280: e042 5c3c 0628 a8bc bc4f c5be b091 563d
00000290: eacd a73e 2db8 8ebe 2e35 a53e 8db7 c63e
000002a0: 796a b8be 4a49 14be d4bd a53c 22a9 573e
000002b0: 891a b2bd ff75 5abe 86cd 993e 8ee2 503d
000002c0: fbdc 23be 57bd 1abe 711e c63d bfae d63d
000002d0: 1fc8 2ebd a9ab 9d3d fd6e 913d 9aef b4bd
000002e0: e134 cfbd 5d4f cebd 9046 8fbd cede 4fbd
000002f0: 253a 97bc 18f5 cfbc d39a 5abd a9be 07bd
00000300: da00 1cbd b79d d33d c462 1cbd d981 9abd
00000310: ea62 333d 142b d0bb dd28 a53d d5ac 883d
00000320: b2db c63d 1352 9ebd b02d 8c3d 705c b43d
00000330: 1b16 57bd e356 c63d 637d a13d 6aa5 bcbc
00000340: 1914 673d c9f3 44bd 6a95 e9bd 9944 3d3d
00000350: 388a 1d3d 7839 b8bd 5a0f dc3c 6189 f7bd
00000360: 45ee a83d 3e91 c93d 52bc 683c 8d63 89bd
00000370: 76a6 7e3d 4933 783c 042d 713c 80ec d03c
00000380: 13f1 763d 0075 3ebd 8e8e fcbc 9091 ba3c
00000390: e0f8 8b3a 99ab d23d e7b0 15bd 3120 c9bb
000003a0: e913 663c 38c8 1cbd 8e49 593d 27b9 d5bb
000003b0: dc05 b3bd 24a9 9bbc e717 6ebd 19a1 fb3c
000003c0: 8185 eabc 5327 efbd 2e5e f0bc e1dd 22bd
000003d0: c1c8 01bd 6190 bf3d 4bf2 00bd d536 a03d
000003e0: 3c8c 163d e830 cabd b5f3 633c e7d4 9d3d
000003f0: e693 ccbd 08b7 87bd bbe3 ae3d fcfb 943d
-0.05166228 -0.1877532 -0.070193104 -0.04663111 -0.030202566 0.08038508 -0.06842612 0.07068269
0.061266176 0.058794346 -0.089851946 -0.039788112 -0.084315985 -0.0633916 0.06045774 -0.007972658
0.035690423 -0.053803522 0.017045299 -0.06312414 0.05740575 -0.046353456 -0.027852288 -0.09280485
0.0012451612 0.09813096 0.049924064 -0.14633217 0.19313137 -0.04513333 -0.104680404 0.2340571
-0.0015782611 -0.046542946 -0.14762808 -0.0213725 -0.01236411 0.028679106 -0.021165447 0.009271972
0.08551511 -0.022729663 0.007219714 -0.08692976 0.108810045 -0.047862157 -0.07229958 -0.07000648
0.07234147 -0.05080015 -0.10502686 0.11173955 0.06680993 0.03443713 -0.087509714 0.14697969
-0.21715985 0.2592639 0.085377 0.08076777 0.45567268 -0.13473248 0.00070831436 0.03861576
0.105888635 0.021484612 -0.03128465 0.14759289 -0.09873378 -0.008808684 -0.06484464 -0.016140806
-0.20117398 0.039739113 -0.00068808626 0.03489045 0.14541593 0.10999341 -0.023517897 -0.1921721
0.0768339 0.18182056 -0.04323576 0.036203902 0.09328893 0.17269409 -0.053449947 -0.04053018
0.20894061 0.1039773 -0.08001464 -0.21241203 -0.090817615 0.17680097 -0.313799 -0.101975426
0.10140758 -0.001816174 -0.04047782 0.057982896 -0.039126024 -0.13622543 -0.04968332 0.07795679
-0.037399486 0.022918005 -0.05759648 0.05779823 0.08701175 0.0612669 -0.03622214 -0.092155695
-0.0015712627 -0.06329141 0.093937494 -0.105511144 0.04950529 -0.2673096 0.22588578 0.24986932
-0.22305717 0.847842 0.3244372 -1.0019982 0.012344721 0.15738007 -0.043514196 0.028538765
-0.097636804 -0.11211243 -0.120515 -0.09910755 0.06413142 -0.18731672 -0.17066458 -0.00096473226
-0.32775953 -0.08883207 0.274352 0.13005 0.013116206 0.06674763 0.13842905 0.12638506
-0.57125944 -0.13405241 0.06304728 -0.6317027 0.22554474 0.31647363 -0.33447567 -0.044174656
0.083665445 -0.13829501 -0.08276869 0.29829255 -0.25176814 0.29319364 0.027277252 -0.39433488
0.013443679 -0.020526897 -0.38537395 0.052385032 0.32774287 -0.2787489 0.32267135 0.38811913
-0.36018732 -0.14481083 0.020232119 0.21060613 -0.086964674 -0.21334074 0.30039614 0.05099731
-0.16002266 -0.1511129 0.09673775 0.10482549 -0.04267132 0.07698757 0.071012475 -0.08834763
-0.10117508 -0.10073731 -0.069958806 -0.050749592 -0.018460343 -0.025385424 -0.053370308 -0.033140812
-0.03808675 0.10332816 -0.038180128 -0.07544298 0.043795504 -0.0063527916 0.08064435 0.0667359
0.09709872 -0.07730498 0.06844652 0.088066936 -0.052511316 0.09684541 0.07885244 -0.023028094
0.05641565 -0.048084054 -0.114054516 0.046207998 0.038461894 -0.08995336 0.026862789 -0.1208675
0.08248571 0.09842156 0.014205055 -0.06708441 0.06217047 0.015148946 0.014720205 0.025503397
0.0602885 -0.0464983 -0.030829694 0.022774488 0.0010679029 0.10286636 -0.03654566 -0.0061378707
0.014042833 -0.03827688 0.053048663 -0.006522316 -0.08741352 -0.019001551 -0.058128264 0.030716466
-0.028628113 -0.116774224 -0.029341783 -0.03976238 -0.031685594 0.0935371 -0.03148107 0.078229584
0.03675483 -0.098726094 0.013913085 0.077066235 -0.09989147 -0.06626707 0.0853953 0.07274625

conv_block_2.0.bias f4 [10]
00000000: 170f 0cbe 3118 383e d94f c6bc 8ab3 2cbe
00000010: adb7 42be 84fb 373c ce1d 4f3e c949 e93e
00000020: a8af 4b3f 5c41 55bd
-0.13677631 0.17977978 -0.024207996 -0.16865364 -0.19015379 0.0112294 0.20226213 0.45564106
0.79564905 -0.052064285

conv_block_2.2.weight f4 [10, 10, 3, 3]
00000000: a535 2fbe 7000 b3bd a88e dfbc 87d3 75bd
00000010: adeb 97bd 2404 913d fcb3 ab3d 1167 ffbd
00000020: 2adc 193d e59b 5ebe c4ae c0be 75c3 5dbe
00000030: 9447 78bd fccc 82bd 53b5 0dbf a1ba d73e
00000040: aee7 823e 05bd 34bf feff 683d e612 4e3b
00000050: 7fc1 a63d 6f07 99bd 9cf8 813d 13bf 1b3c
00000060: 57c3 a53c 54a0 8f3d 9bc5 cfbd 763d 0fbe
00000070: 243b c03d cc4f f9bd 289a efbd a97e aabb
00000080: b69c c0bd 448d 5dbd 5f5a b23c 3301 e83c
00000090: 8f97 08be d9ee 2dbe d9e9 2fbd 9dbc b83b
000000a0: fa45 d0bd 3e0b b5bd e370 06bd 1d46 1ebe
000000b0: 6a14 85be 74c8 2fbe 1c49 06be e719 bb3d
000000c0: 8772 a1bc 3d61 26bc 67df d23d 6680 a5bd
000000d0: f521 85bd 41f4 1bbd 12d1 20be 9c7a 54bd
000000e0: 0e54 8bbe 3b6c cabe 8d41 53bc d8c9 c03e
000000f0: 5bdc 36be 9b05 9a3d 1c86 b83e 5aa9 cd3e
00000100: c9a5 f53d 5d97 9bbd a76a a4bd b82b f2bb
00000110: 7b4a 9c3d b169 24bd e5a4 03be b82b 81bc
00000120: 4899 b43e f234 60be 533e f13d c103 be3d
00000130: 4525 d4be 3dd5 3f3e 6495 8ebe 94d0 fabe
00000140: c42b 80be ca12 3dbd 553c 1c3d 748f 67bd
00000150: d8fc e83c 34ce 8ebd 83e8 f9bc 795a 433d
00000160: 9af4 cebb dde9 1fbd ef59 95bc 829e 3a3e
00000170: a0d7 bdbc 4f01 2abe 304c 843e 354f b5bd
00000180: 48d1 383c 8006 303e b6d7 f6ba e5c2 263e
00000190: ae01 233e 1c36 78be ca04 eebc 8086 2bbe
000001a0: a4e6 a13e 7b3c 86be 4a99 33bf 66d4 1c3e
000001b0: 623a d13c 6af0 503c db22 9a3d d6d6 ad3d
000001c0: 6757 97bd 2c66 35bd 1ed7 06bd da77 b1bd
000001d0: 8e17 e9bc adf2 14bd 26bd 203e c745 853d
000001e0: 8707 8a3d 14d8 47bd 3da0 b7bd 7344 ab3d
000001f0: 75c4 0a3c 0250 1c3d b4cd 21bd 50cb aa3d
00000200: dd01 ca3d 323a c43b b332 40bd e083 d73d
00000210: 08fb 873d 9e2f babd ec1b 2fbd 947a d6bd
00000220: c597 aa3d beef a13d eeda 9bbd d3a9 13bc
00000230: 93ca 903d 2e3a eb3d c89b fa3d c6ce 793d
00000240: b595 3fbe bcd1 173e 62dd f13d aaf9 a9be
00000250: 8af4 4f3e fc04 71bd f8f6 80bc b1c3 973e
00000260: cb40 0cbe 5b67 013e 48a9 debd 5e58 0c3e
00000270: 4251 833d 2e89 f5be dd59 59be 9119 693e
00000280: 01f4 01bf bdc8 243e 051f 7cbc f63e 1dbe
00000290: 1297 d6bb ff9c 863e 3ee6 713d 92fe 88be
000002a0: 79db ab3d db35 9d3d 1bb2 423b bb14 7fbc
000002b0: 8686 333d ec93 b73d 8aab 62bd c550 7cbd
000002c0: 0ba9 263d a519 353b c565 96bc d974 bdbd
000002d0: 7de4 c03e a35d a6bc c13d 14be 34e4 bc3c
000002e0: 9c19 d63d 6974 63be c2ff 33bd 112a 493e
000002f0: 7eae c5bd 33e7 e4be 3f2b 653e e829 14bf
00000300: dfc8 07bf 4bad 033f 1241 24be 5528 18be
00000310: 8f0f 13bd f1c6 973e 15cc 53bb b744 5dbb
00000320: 1cc3 c3bc 1ca4 42ba 376c 933d 7efb 683d
00000330: e733 793a 42d9 6ebd 04bd 383d 67a8 c1bd
00000340: c688 fd3d 983a 403d 7622 1f3d 278c c63d
00000350: b514 08be 75a7 5c3d 2cfc 4e3d d87f 84bd
00000360: 3804 9b3d bc7f 52bd cba7 a33c f1f6 dbbc
00000370: 9789 b43d d2ff f4bc 5bb9 e13d bd6c 323d
00000380: 784f a43b e1ec 5c3e 2c65 803d ae0c 5abe
00000390: 467e 533e 1353 9c3d 8d1c ddbd b8ef 4a3c
000003a0: 9ccd 8a3c f715 35be eb3e 91be 122d 15be
000003b0: 9b2c 303e d4a7 c0bd be4a b2bc 2f87 4bbd
000003c0: ce1b d8bd ac6c 443c 83ce 993d e5e3 b9be
000003d0: edd1 0b3f e110 43bd 6ffe b1be 84cc b43e
000003e0: 0832 2bbb 57fa af3d a7bb b7be 519d 06be
000003f0: 4749 3bbe ed63 acbe 721d 683d 1a2a bb3c
-0.17110308 -0.08740318 -0.027289703 -0.06001618 -0.074179985 0.07080868 0.08383939 -0.1247083
0.03756348 -0.21739157 -0.37633336 -0.21656592 -0.060615137 -0.06386754 -0.55354804 0.42134574
0.25567383 -0.7060092 0.05688476 0.003144437 0.08142375 -0.07472121 0.063462466 0.009506005
0.020234747 0.07013002 -0.10145112 -0.13988289 0.0938628 -0.12173423 -0.11699325 -0.0052030873
-0.0940489 -0.0540898 0.021771608 0.028320884 -0.13339065 -0.16985644 -0.042947624 0.005637719
-0.10169597 -0.08840035 -0.0328225 -0.15456434 -0.25992137 -0.1716631 -0.13113827 0.091358
-0.019707931 -0.010155019 0.10296517 -0.08081131 -0.065006174 -0.038074736 -0.15704754 -0.051874742
-0.27212566 -0.39535698 -0.0128940465 0.37653995 -0.17857496 0.075206004 0.36039817 0.40168267
0.11994512 -0.0759723 -0.08028155 -0.0073904656 0.076313935 -0.040139858 -0.12855871 -0.015767917
0.35273194 -0.21895197 0.117794655 0.0927806 -0.41434684 0.18733688 -0.2784835 -0.48987257
-0.2503339 -0.046160497 0.038143475 -0.056533292 0.028440878 -0.06972924 -0.030506378 0.047693703
-0.00631578 -0.03904139 -0.01823136 0.18224528 -0.023174107 -0.16602062 0.25839376 -0.08852998
0.011280365 0.1718998 -0.0018832597 0.16285284 0.1591861 -0.24239391 -0.029055018 -0.16750526
0.31621277 -0.26218018 -0.70155776 0.15315399 0.025540534 0.012752632 0.075261794 0.08488242
-0.073897175 -0.04428689 -0.032919995 -0.08665438 -0.028453615 -0.036364246 0.15697154 0.065074496
0.06739717 -0.048790053 -0.0896611 0.08362665 0.008469691 0.03816224 -0.039502814 0.0833956
0.09863637 0.0059883827 -0.04692335 0.105232 0.06639677 -0.090911135 -0.042751238 -0.10472599
0.08329729 0.07907055 -0.07610117 -0.009012657 0.07069888 0.11485706 0.12236744 0.06098821
-0.18709452 0.14826101 0.118098035 -0.3319829 0.20308128 -0.058842644 -0.015742764 0.29641488
-0.13696592 0.12637083 -0.108721316 0.13705584 0.06411983 -0.47956222 -0.21225686 0.22763659
-0.50762945 0.160922 -0.015388255 -0.15356049 -0.0065487707 0.26291654 0.059057467 -0.26756722
0.083914705 0.07676288 0.002970821 -0.015568907 0.043829463 0.08963761 -0.055339374 -0.061600465
0.040688556 0.0027633694 -0.018359074 -0.092508025 0.37674323 -0.020308321 -0.14476682 0.023058034
0.10454103 -0.22212376 -0.04394508 0.19644953 -0.09652422 -0.4470764 0.22379778 -0.57876444
-0.5304088 0.514363 -0.16040447 -0.14859135 -0.03590351 0.29643968 -0.0032317687 -0.003376288
-0.023896746 -0.0007424967 0.07198375 0.056880467 0.000950633 -0.058312662 0.045102134 -0.09455948
0.12379603 0.04693088 0.038851224 0.09694701 -0.13289149 0.053870637 0.05053346 -0.06469697
0.07569164 -0.05139135 0.01997747 -0.02685115 0.08815306 -0.02990714 0.11021682 0.043560732
0.005014356 0.21574737 0.06269297 -0.212939 0.20653638 0.07633033 -0.10796461 0.012386255
0.016943745 -0.1768416 -0.28368315 -0.14567974 0.17204516 -0.09407011 -0.021764155 -0.049689468
-0.10552178 0.0119888 0.07510092 -0.36306682 0.54617196 -0.04762352 -0.3476443 0.35312283
-0.002612235 0.085926704 -0.35885355 -0.13145949 -0.18289672 -0.33669987 0.056668706 0.022847224

conv_block_2.2.bias f4 [10]
00000000: 2b57 533e 1679 7dbe ba05 8c3e 0f5c 7f3d
00000010: 6965 bebd 6200 633e 3573 f63d 11df 64bd
00000020: e13a b03c 99f9 ccbd
0.2063872 -0.24753222 0.2734812 0.062343653 -0.09296686 0.22168115 0.12033693 -0.055876795
0.02151245 -0.100085445

classifier.1.weight f4 [10, 490]
00000000: 134f 2abc 386f 95bd c1a8 db3d 6c0a 45be
00000010: 0e20 dabc b1f3 01bd dfe5 863d 417f 593d
00000020: e516 473e 2f35 903d b012 3ebe 7fe0 083d
00000030: f7e0 3a3e f4a5 313e c5f5 2d3d f232 b53d
00000040: 3a2e cf3d 63cf 03bd 3b63 1a3e c73e 393d
00000050: 9f2a dfbd 8be6 f9bc 0dc9 f83d 621d 89bc
00000060: 658c b4bc 8cfa a03d 03da d2b8 a36d 8cbd
00000070: 183d a7bd 612f 34bc 30ca 39bd e07c 94bd
00000080: 129f 3d3e b67b cabd 9e61 19bd 5a8a 2e3d
00000090: 854b 00be 6e68 fa3b 39e3 7bbd 8123 26bd
000000a0: 77ee 013e 6bd0 2abd 1c0e 9a3d 5d17 0bbe
000000b0: c629 46be 493c 83bd e974 2dbd e889 993e
000000c0: 2737 dfbc 9a3a 233d cd6d b63d fc03 56bd
000000d0: 87e1 babd 1681 893c e301 933c 3d7d fb3d
000000e0: 7b7c a03c a4e6 c1bd c0d2 07be ed1d 7c3d
000000f0: d4ec 03be 0f4a 943c eab6 013b 849e c93d
00000100: 5150 553e 1421 9dbd c6c8 943d 9517 e6bb
00000110: 8e2b 9e3e c678 4f3d 7ba3 983d 9d1f af3c
00000120: 310b 26bd 048e 2cbd 09d5 aa3d 7f8b 2d3e
00000130: c30f bb3d 8be7 3c3d aa96 73bc 301a 56bd
00000140: 9ce4 77bd 89e9 233d d125 813c 8582 d93b
00000150: 94ba 9bbd 1a48 07bd b972 1abd a6d3 84bd
00000160: 74eb 0fbc b595 cfbd 1e40 903c 87a2 6fbd
00000170: d151 b6bb 916f 4f3e afa7 05be 12f7 12be
00000180: d32e cb3c c5f4 0cbb dcd0 eb3d 9c59 a53d
00000190: d8c0 2b3e c8b0 57bd b3ab 55bd 2eb3 533b
000001a0: 3c0c 483d f23e 533e efdc 913d a2d3 62bd
000001b0: 6c70 a93d acc6 013c 08be b93d 61c7 793d
000001c0: a35d eb3b 7bcd ca3d 6be5 8b3e 1d56 22bd
000001d0: 2263 1d3c ffb5 82bc 670d 1cbe 7176 c7bd
000001e0: 9d66 ccbd 0d90 453e 7d26 18be 5414 0dbe
000001f0: a7a8 193e 4a75 c1bd 1006 80be 7f70 a33c
00000200: f0fb 563d d16f fdbc b4fe 00be 8817 0f3e
00000210: 6d23 dd3d c81f cbbd 5fb1 203d 5eaf 5a3d
00000220: a9b8 62bd 3382 16be b2c0 a7bd 0e8b a83d
00000230: f70d 873d 90f2 553d df5f b23c a510 b0bd
00000240: e910 a3bd fb12 13be 7c78 1bbe c77e 713e
00000250: 2571 f5bd 75e2 afbd 8d61 27bd 46b6 d13d
00000260: cfd1 603d abdb 2f3b 4b4c aabd 46b3 eabd
00000270: 8621 02be 7c8b 0ebd 3209 3b3b f5fb fcbd
00000280: 6dfb d4bd eb89 babd 3816 42bd c445 d4bd
00000290: 004e d43c 770a 1fbd 735f 54bb f51e 803d
000002a0: 846d c03d 5dd8 b83d 9244 b33b abd8 e3bb
000002b0: 62fc 363d c2bd c03d a4db 163e f0d4 b53c
000002c0: 0381 233e d100 2cbd 6a2e a6bd 9afd 33bd
000002d0: 4d5b f0bc 7873 233e 820c a9bd 6c0b 413e
000002e0: 4896 7bbd ee9b b2bd a376 1ebc 8a08 69bc
000002f0: 67ff ec3d 6765 b7bb dfc9 14bc 8f65 c7bd
00000300: 18bb 00bc 98a5 9ebd 6281 44bd d542 553d
00000310: a7ce 49bb 4cf8 403b 23ac 04bd 28cb d7bc
00000320: 2d62 153d 2eaa e03c 1eca ab3c 7cc6 8abb
00000330: a99c cbba f450 1d3e 49cb f73d c441 e33d
00000340: 8ff4 dfbc e303 cdbc 2490 423d 42bb c23d
00000350: 1992 583c e55d ed3d b8ad a53c d59b 5e3e
00000360: abd9 9b3d 3706 fd3d da30 9e3d d832 44be
00000370: 86ad 8bbc 8803 6c3c 9258 1b3e 5f8e 8dbc
00000380: 1c3f 013d 0b9b 923b d71d 86bd bd18 cf3c
00000390: be21 2fbd f195 223b 436a 8fbd 85e4 3ebc
000003a0: e8b0 c4bc 4b76 5cb9 1840 14bc 2e8f 333c
000003b0: 8bbd 093d 00f3 82bd 1d78 753b 2dc0 f13b
000003c0: 12d2 0a3d 1a28 bdbc 9c91 ebbd 702a 9fbd
000003d0: 5608 01bd 58fe 8a3c e948 b73d 9c4a 5dbb
000003e0: 11ee b83d 6710 ae3d 233d 963e 1edf 753d
000003f0: a210 cc3b 8c6a 8cbd d353 d43d 1b9e 093d
-0.010394829 -0.07296604 0.10725547 -0.19242257 -0.026626613 -0.031726543 0.06586813 0.053099874
0.19442327 0.07041394 -0.18561816 0.03341722 0.1824988 0.17348462 0.042470712 0.08847608
0.10116239 -0.0321802 0.15076916 0.045225885 -0.10896801 -0.03050544 0.121477224 -0.016737644
-0.022039602 0.07860288 -0.00010054188 -0.06856849 -0.081659496 -0.010997624 -0.045358837 -0.072503805
0.18517712 -0.09886877 -0.03744661 0.04261241 -0.12528808 0.0076418435 -0.061495993 -0.040561203
0.12688623 -0.04170267 0.075222224 -0.13583131 -0.19351873 -0.06407983 -0.042347822 0.29988027
-0.027247978 0.03985081 0.089076616 -0.052249894 -0.09125047 0.016785186 0.017945236 0.12279747
0.019590607 -0.09467819 -0.13263988 0.061551977 -0.12883312 0.01810172 0.0019792863 0.098446876
0.2083142 -0.07672325 0.07264857 -0.007021854 0.30892605 0.050652288 0.074530564 0.02137738
-0.040538017 -0.042127624 0.083414145 0.16947745 0.09133866 0.046119254 -0.014867464 -0.052271068
-0.060520753 0.04001764 0.015765103 0.0066378736 -0.07603946 -0.033027746 -0.037707064 -0.06485681
-0.008784164 -0.10135976 0.017608698 -0.058504608 -0.0055639525 0.20257403 -0.13052247 -0.14352062
0.024802601 -0.0021508199 0.11514446 0.08073732 0.16772783 -0.052658826 -0.0521657 0.0032302844
0.048839793 0.2062948 0.07122218 -0.05537761 0.08273396 0.007920902 0.09069449 0.06098116
0.007182793 0.099024735 0.2732347 -0.039632905 0.009606155 -0.015955923 -0.15239488 -0.09739388
-0.099805094 0.19293232 -0.14858432 -0.13777286 0.15005742 -0.09446199 -0.25004625 0.019951103
0.05248636 -0.030937107 -0.12597162 0.1397382 0.107977726 -0.09918171 0.039231654 0.0533899
-0.055351887 -0.14698105 -0.081910506 0.082296476 0.065944605 0.05223328 0.02177423 -0.08596925
-0.0796221 -0.14362709 -0.1518268 0.23583518 -0.11984471 -0.08588115 -0.040864516 0.10239844
0.05488759 0.0026833813 -0.08315333 -0.11459975 -0.127081 -0.03480099 0.0028539416 -0.123527445
-0.10399518 -0.09108337 -0.04738447 -0.10364869 0.0259161 -0.03882834 -0.0032405525 0.062559046
0.093958884 0.09025643 0.0054708207 -0.006953319 0.044674285 0.094111934 0.14732224 0.022196263
0.15967183 -0.041992966 -0.081143215 -0.043943025 -0.02934041 0.15962017 -0.08254339 0.18852013
-0.061422616 -0.087211475 -0.00967184 -0.014223227 0.11572152 -0.005596805 -0.009081333 -0.09736168
-0.007857107 -0.07746428 -0.04797495 0.05206569 -0.003079334 0.0029444871 -0.032390725 -0.02634199
0.03647058 0.027424898 0.0209704 -0.004235087 -0.0015534359 0.15362912 0.120993204 0.11096528
-0.027338294 -0.025026267 0.047500744 0.09508373 0.013218426 0.115901746 0.020224437 0.21739133
0.07609876 0.12354701 0.077241614 -0.1916002 -0.017050516 0.014405139 0.15170506 -0.017279802
0.031554326 0.004474049 -0.0654866 0.02528035 -0.04275679 0.002480861 -0.0700269 -0.011651163
-0.024010137 -0.00021024903 -0.009048484 0.01095943 0.033628028 -0.06394005 0.0037455626 0.0073776455
0.033891745 -0.023090411 -0.11502382 -0.07771766 -0.03150209 0.016966984 0.089494534 -0.0033766394
0.090297826 0.08499222 0.2934352 0.060027234 0.0062275687 -0.0685626 0.10367551 0.033598047

classifier.1.bias f4 [10]
00000000: f272 953d ec37 2dbe e2b6 d23e e955 d3bc
00000010: 9a02 b7be 09f4 34be 5718 183e d751 d939
00000020: 560e 1f3e f1a8 c5bd
0.07297315 -0.16915864 0.41155154 -0.025797801 -0.35744172 -0.17671217 0.14853035 0.0004145044
0.15532812 -0.09651364
