models/05_going_modular_script_mode_tinyvgg_model.pth (torch, 36715 bytes, 10 tensors)

conv_block_1.0.weight f4 [10, 3, 3, 3]
00000000: aace 0fbe 768e 99bd 35f8 1fbd a2f1 3b3e
00000010: af07 1f3e e0ed 1c3e fc26 d3bd 22c9 f4bd
00000020: 2af2 89bd b1ed 963c 424a 523e e336 1dbe
00000030: 509b 7fbd fe8f 203e 36bd e4bd 2a2e 24be
00000040: 7696 2fbe bda7 13be 154f cabd 4a3d c73d
00000050: 38e8 d4bd 5788 463b 7f23 f1bd 30f6 7bbd
00000060: 0221 2e3e 9a8f cabd ed87 03be 35aa 30be
00000070: be04 383d fd07 1dbd 172a 4dbd a7a7 94bd
00000080: b849 293e cd96 053d dc87 ac3d cce9 09bd
00000090: e5d3 1fbe fd11 0cbe ba3c 90bd b1db f5bd
000000a0: e973 1f3e 384d 8fbd d084 093e 3c08 9b3d
000000b0: 0692 14bc d2a1 0dbe 8ba0 f53d 3e9b 2b3e
000000c0: c6a4 823d e73b ee3d 04e5 09be 34b7 e5bd
000000d0: 3cbe 153e e4b6 1dbe 5d89 1a3c e595 afbd
000000e0: de9b 60bd 3a8a 383e d398 16be 962d 37be
000000f0: 4683 04be 2cf2 bc3d 0c11 91bd 9ccc 7f3c
00000100: 2e33 103e c0cf ecbd eff6 48bd d726 0d3e
00000110: 40e1 22bd 2f9f ccbd 29ee 383e 25b2 0bbe
00000120: d15d 19be 64fe db3c e95b 14be 9f8c 2b3e
00000130: cecf 0fbd f719 d3bc 9b36 7bbd 58bb 1fbe
00000140: ce00 32bd 5652 84bd cc98 8b3d 6dc3 d13b
00000150: 662c dcbd 2c7d 3e3b ed43 cc3d 2b5f 113e
00000160: 129f 63bb 7602 e73d 38d2 293e fbe8 26be
00000170: ea50 263d 50da 93bd 033b 56bd d788 10be
00000180: 49f4 cdbd 1bfd f93d aca6 623d b27f 33bc
00000190: 47d7 c83d 0f73 b43d 034f 483d 2bf1 b5bd
000001a0: 0285 6d3d 9300 23be f7af d83d 76a7 333e
000001b0: 5d48 02be 6346 a63d b28b 3c3e 8233 7e3d
000001c0: 2157 b03d 892b 21be 6ff8 c8bd 0d54 e93b
000001d0: 43c1 893d 7449 20bd bdda d4bd 915c 8e3c
000001e0: 4e8c fabd 8443 13bd 7bff 2c3d dc2d 9fbd
000001f0: 68e3 c43d fa43 3f3d 3b6b bcbc a7ac df3d
00000200: d573 f43b 1243 16be 911b 213e 0ddb 2f3e
00000210: a03c 17be b568 0cbe f6a1 bdbd 808e fb3c
00000220: 5e59 133e 0111 213e d4f5 2dbd 8f48 933d
00000230: 3158 22be dc55 373e 1d94 16be 39e8 0abe
00000240: 1a2c bfbd 8f91 57bd 748c cebc 3c22 4bbd
00000250: 7ac6 6c3c 98df 9bbd b8cb 9f3d 0362 1d3e
00000260: e36a bdbc a3f0 2fbe 5d19 293e 9682 b1bd
00000270: c3ad 11bb 941f a13d af2b 1fbe 1710 85bd
00000280: b9df 3d3e f1c0 1b3e ee1f ccbc 1055 30be
00000290: d8d8 3d3d fb46 efbd 00b7 493c 2b83 0ebe
000002a0: 07d3 7f3b 3da7 163e d0f7 883d 5105 b63d
000002b0: 94bd bfbd 9b04 9a3c 3392 e23d 9620 1ebe
000002c0: 7a8c 363e dd8b 5f3b 233b 11bc 3bdb b73c
000002d0: e5ff d0bd 4bf9 133e 744f 1ebe f913 963d
000002e0: eadc f63d 5116 d1bd 27f1 e4bd cb68 63bc
000002f0: 7ad2 303d 3b23 ad3d 84f8 12be bc22 123d
00000300: 603e 063e 7401 243e acba 05bd a0d1 313e
00000310: e3d7 efbd 0df9 ccbc ae15 3ebe 35ac 2cbe
00000320: c1da 203d 031a ec3d b43e 06be 5aef e6bd
00000330: d45f 493d 1e7c 1cbd 1cd5 22bd 092a 633d
00000340: cbe6 9d3c 178e 043e 7127 653d be94 47bd
00000350: b2a8 92bc c9eb 123e 466e 2ebe 24f1 e0bb
00000360: 0a1c 033e 8f7f eebd b978 223d df6f 88bd
00000370: ebae f9bc 62b3 633d 3744 5cbd 9f8d 963d
00000380: 3dde 093e 7a5d 293e c90c 373e d74c 83bd
00000390: 96b1 a23d 16ad 9a3d f841 3fbe d742 07be
000003a0: fd94 c7bd 0208 183d 17be 94bc f15a 0abd
000003b0: 6cdf 06be 30e2 013c 9c71 303d 6bbc 2bbb
000003c0: def2 3cbe 576b f33d cb39 813d 6123 3e3e
000003d0: 6202 073e 2c57 89bd 7539 c83c bb59 0bbe
000003e0: 8d6d c53d 5c78 12be d50b 07bd 41ce 0ebe
000003f0: 5dcd abbd 0414 0ebe 76d7 e5bd af62 42bd
-0.1404368 -0.074978754 -0.039055068 0.18353894 0.15530275 0.15325117 -0.1031017 -0.119524255
-0.06735642 0.018423887 0.2053614 -0.15352969 -0.062403977 0.15679929 -0.111689016 -0.16033235
-0.1714724 -0.14419456 -0.09878365 0.09728487 -0.10395855 0.0030293667 -0.117743485 -0.06151408
0.17004779 -0.09890671 -0.1284482 -0.17252429 0.044926398 -0.038337696 -0.050088968 -0.0725854
0.16532028 0.032614518 0.084243506 -0.03367023 -0.15608175 -0.13678737 -0.07042833 -0.120047934
0.1557156 -0.0699715 0.1342957 0.0756993 -0.009068018 -0.13831261 0.11993512 0.16758439
0.06379084 0.11632519 -0.13466269 -0.11216584 0.1462335 -0.15401798 0.009432164 -0.08573512
-0.054836147 0.18021479 -0.14706735 -0.17888483 -0.12940702 0.09225878 -0.070833296 0.0156127475
0.14082024 -0.11563063 -0.04906362 0.13784347 -0.039765596 -0.09991299 0.18059601 -0.13642175
-0.14977194 0.026854701 -0.14488186 0.16752861 -0.035110287 -0.025769217 -0.061331373 -0.1559881
-0.0434578 -0.06461017 0.06816253 0.0064014704 -0.10750656 0.0029066307 0.09973893 0.1419646
-0.0034732264 0.11279766 0.16584098 -0.16299812 0.04060451 -0.07219374 -0.05230237 -0.141147
-0.10056359 0.12206479 0.055334732 -0.010955738 0.09806686 0.08811008 0.048903476 -0.0888389
0.057988174 -0.15918188 0.10580438 0.1754435 -0.12722917 0.08118894 0.18412665 0.06206084
0.086103685 -0.15739264 -0.0981301 0.0071206153 0.06726315 -0.03913255 -0.103932835 0.017378123
-0.12233792 -0.03595306 0.042235833 -0.07772419 0.09613687 0.046695687 -0.02300035 0.10921603
0.0074600973 -0.14674023 0.15733172 0.17173405 -0.1476922 -0.13711818 -0.09259407 0.030707598
0.1438956 0.15729143 -0.042470768 0.07191574 -0.15853955 0.17903847 -0.14704938 -0.13565148
-0.093345836 -0.05262905 -0.025213458 -0.049593195 0.014451617 -0.076110065 0.07802528 0.1536942
-0.023122257 -0.1718164 0.16513582 -0.086674854 -0.0022228814 0.07867351 -0.15544008 -0.064972095
0.18542375 0.1521032 -0.024917569 -0.17219949 0.046349376 -0.1168346 0.012311697 -0.13917224
0.0039035694 0.14712234 0.066878915 0.08887733 -0.09362331 0.018801024 0.110630415 -0.15442118
0.17827025 0.0034110465 -0.008864197 0.022443404 -0.10205058 0.14450566 -0.15459996 0.07328028
0.12053855 -0.10209335 -0.11178809 -0.013879965 0.043169476 0.08453985 -0.14352614 0.035677657
0.13109732 0.1601618 -0.032648727 0.17365122 -0.11711099 -0.0250211 -0.18562958 -0.16862567
0.03927112 0.11528399 -0.13109857 -0.112761214 0.049163654 -0.038204305 -0.03975402 0.05546001
0.01927509 0.12944828 0.055945817 -0.048725836 -0.017902706 0.14347757 -0.17034253 -0.0068646837
0.12803665 -0.116454236 0.03966591 -0.06661963 -0.030478915 0.055590995 -0.053775992 0.07351231
0.13463683 0.16539565 0.17875971 -0.064111404 0.07944028 0.07552545 -0.18677509 -0.13209091
-0.09745214 0.03711701 -0.018157048 -0.033778135 -0.13171166 0.007927462 0.043077096 -0.0026204835
-0.18452021 0.11885708 0.06309851 0.18568183 0.13184503 -0.0670608 0.02444146 -0.13608448
0.09640036 -0.14303726 -0.03297027 -0.13945867 -0.08388779 -0.13874823 -0.112227365 -0.047457393

conv_block_1.0.bias f4 [10]
00000000: 4dfa 0d3e 5c3a 443e da5f 8a3d c959 0a3e
00000010: 6996 dcbd dee3 963c 6a65 83bd 62da f03d
00000020: b8ac db3d f846 2b3e
0.13865013 0.19162887 0.067565635 0.13510813 -0.10770876 0.018419202 -0.064158276 0.11760403
0.10726303 0.16726291

conv_block_1.2.weight f4 [10, 10, 3, 3]
00000000: b1d0 e83d b677 a73d 6a6c c93d e9eb eabc
00000010: 8679 6abc f88e 83bb 1ff2 da3c 4236 383d
00000020: dae0 a63d 4c13 b33d 7c74 8bbd 6c33 40bd
00000030: 6f81 eb3d 9636 9b3d 3b9b 843c 280c 763d
00000040: 7ad5 cf3d aa56 60bc 3a98 a43d c671 cf3d
00000050: 71fc 1b3d 580e 4f3d 6a6f ff3d 1ba1 8e3d
00000060: 68d1 9bbc 3395 9b3c e86d 36bd 877b 40bd
00000070: db10 c83d d197 aebd 37c7 6f3d a29c 0cbd
00000080: 41e5 8fbd f7b6 cebb e391 a13c bd2c 8d3d
00000090: 61e0 adbc ba04 86bd d270 adbd 4fdd b93d
000000a0: dcb2 2e3d 0901 50bb 9104 543d d059 4a3d
000000b0: ac57 733d 3e9a 00bc cea1 913b 7ab2 cbbd
000000c0: 9e9e a23d aead 8fbc d7f8 e43b e46b a2bd
000000d0: e233 143d 2083 a2bd dfd7 80bd 5b35 bcbc
000000e0: 4a74 ba3d d0d4 073d b5e3 b8bc 6ffc 44bd
000000f0: 4441 80bc 938c 8ebd a497 9dbd 944e 223d
00000100: 7141 9f3d 5df6 d3bc e475 b13d 7fc9 b1bd
00000110: 731e 9b3d ed5a 28bd 51e7 b9bd a8e4 95bc
00000120: b193 87bd 1483 673b 837d 74bc 26f5 893d
00000130: d2cb 973d 4719 83bd f804 bc3d 6cdf cdbd
00000140: eef2 c1bd c7c1 313d 3526 803d 2764 24bd
00000150: f437 b53d 33d1 343d 8eef 353d 57da 983d
00000160: 8088 3dbc 0be9 a33b 7f55 8bbd 3b98 b6bd
00000170: cae2 6abd d632 bfbd dee8 b9bc 9cc1 9d3d
00000180: 2964 76bd fedb 823d 6680 4bbc b855 94bb
00000190: c774 62bd 49ac 853d 85e5 e03b 9184 4b3d
000001a0: 3d01 eebb c896 9a3b ba7f cdbd e9ba b0bc
000001b0: 5b8a 3d3d 3171 933c 165a aa3c 1a95 00bd
000001c0: 0174 1ebd a4d1 993c 8828 9b3c e461 b5bd
000001d0: 09e1 9b3d 18db 8e3d 8101 55bd d7d4 973c
000001e0: fe06 64bd 1504 3ebc efda 473c c646 22bb
000001f0: df78 803c fa4b 2e3c 728e b4bc 6e84 d33b
00000200: 5273 bd3d a783 bb3b 426a d53d 261a 2dbd
00000210: 82f9 95bc f07e 8bbd 976b 6f3c 6794 c6bb
00000220: c116 a6bc 2b5b ad3d e8e4 cebd 135b 8dbb
00000230: 1758 f13c 4756 97bd 2411 a83b 7cd1 41bd
00000240: 4852 b1bb 41e5 d93c 72a6 8ebd d928 c2bd
00000250: 2651 88bd fe23 853d bc4a ae3d 6226 a73c
00000260: 07f2 d8bd 9035 4d3c b25d cbbc 5e07 83bd
00000270: fd12 04bd 5ef9 bdbd e153 553d 48fa 73bd
00000280: 311f af3d 29f0 2cbd 1b21 04bd f4be a6bd
00000290: 265e 793b 6cd5 8f3d 684e 8b3d 1748 c33d
000002a0: aec0 c93b d586 9fbd cc4c c03d 8e01 0e3d
000002b0: a49d debb 65fa 0aba b774 a3bd c568 43bd
000002c0: f95f 7ebd 907b af3b a66f aa3d f2a6 4c3d
000002d0: 1fb1 abbd 0b65 893d a93e 8e3d 8438 cfbd
000002e0: 9652 d9bd 3457 113d 2c3e 26bc 16d7 1f3c
000002f0: 1507 6bbd 3d7b b1bd c135 51bc 7ab9 af3d
00000300: c3d2 b23c b234 2f3d e27d 3e3d eeb7 9abd
00000310: 4d02 8ebd 63d9 913d 7820 57bd 8ee5 d2bd
00000320: 4481 993d 5865 b53c ab7f 97bc fa31 1e3d
00000330: 9fc9 873d 6122 913d 56e1 34bd fe74 cebd
00000340: fc6d a13d 6379 723d 1be4 d8bb 38d4 cdbd
00000350: 28dc 7a3d 8104 593d 1523 d9bb e9f4 afbd
00000360: 826c af3b 48de 55bd 1a1e 843d e543 4cbd
00000370: def3 bc3d 1883 5abd f05b a73d c672 a6bd
00000380: ea54 46bc 1c33 9bbd 1500 b23d de13 2bbc
00000390: 6de2 5abc 975c c23d 5bcc 783d 30a9 b1bd
000003a0: 46b6 743c a862 c73d 5588 c63c 878e 783c
000003b0: a512 253d cb8b 2dbc fad6 003d 33ef 6b3d
000003c0: 2b2e 2f3d 969c 0d3d fd35 d4bd 9999 77bb
000003d0: a09a 21bc 6c5d 42bd 75e3 e9bd d4cd 79bd
000003e0: 864f 123c e68f f63c f90b b1bd 06dc 013d
000003f0: 0972 55bd 08d7 77bc 2b38 d1bd 9f8c 9ebd
0.1136793 0.0817713 0.098351315 -0.028676944 -0.0143112 -0.004014846 0.02672678 0.04497362
0.08148356 0.08743915 -0.06809327 -0.04692404 0.11499297 0.07578771 0.0161873 0.060070187
0.10148139 -0.013692537 0.080368474 0.101291224 0.038082544 0.05055079 0.124724224 0.06964322
-0.019020751 0.018992042 -0.04453841 -0.046992805 0.0976884 -0.085250504 0.058539595 -0.034329064
-0.070261486 -0.006308432 0.019722885 0.06893299 -0.021225156 -0.0654387 -0.084687844 0.090754144
0.042651042 -0.0031738898 0.051762167 0.049402058 0.059409782 -0.007849274 0.0044443374 -0.09946151
0.0794041 -0.017538872 0.006987672 -0.07930735 0.03618229 -0.07935166 -0.06291174 -0.02297466
0.09104212 0.03316194 -0.022569517 -0.048092302 -0.015656121 -0.06960406 -0.07694939 0.03962572
0.07776154 -0.025874311 0.08665064 -0.086810105 0.07574167 -0.04110234 -0.09077323 -0.018297508
-0.06619967 0.0035325931 -0.014922502 0.067362115 0.074119225 -0.06401306 0.09180635 -0.1005238
-0.09470163 0.04339769 0.062572874 -0.040134575 0.08848563 0.04414482 0.04441791 0.0746352
-0.011568189 0.005002146 -0.068034165 -0.089157544 -0.05734519 -0.09335868 -0.022694048 0.07702944
-0.060154114 0.063896164 -0.012420749 -0.00452682 -0.05528715 0.065270014 0.0068632984 0.049686972
-0.007263331 0.0047176816 -0.100341275 -0.0215735 0.046274524 0.01799831 0.02079491 -0.031392194
-0.03868485 0.018776722 0.018940225 -0.08856562 0.076112814 0.069753826 -0.052003387 0.018534107
-0.05567073 -0.011597653 0.012198194 -0.0024761423 0.015682636 0.010638231 -0.02204058 0.006454996
0.09250511 0.0057224813 0.10420658 -0.042261265 -0.018307451 -0.06811321 0.014613054 -0.0060601714
-0.020274522 0.084646545 -0.10102254 -0.0043138354 0.02946095 -0.07389503 0.0051289964 -0.04731892
-0.00541142 0.026598575 -0.06965341 -0.09480447 -0.06656103 0.065010056 0.08510348 0.020404045
-0.10593038 0.012524977 -0.02482495 -0.063978896 -0.03224467 -0.09276079 0.052081946 -0.05956486
0.08550871 -0.042221222 -0.032258134 -0.0814189 0.0038050502 0.07023129 0.06802064 0.095352344
0.0061570024 -0.07789389 0.09389648 0.03466945 -0.0067936946 -0.0005301594 -0.07981246 -0.047707338
-0.062103245 0.005355306 0.083220765 0.0499639 -0.083833925 0.067087255 0.06945545 -0.101182014
-0.10611455 0.035483554 -0.010146659 0.00975587 -0.0573798 -0.08666084 -0.012769164 0.08580299
0.021829015 0.042774864 0.04650677 -0.07554613 -0.069340326 0.07121541 -0.0525212 -0.1029769
0.074953586 0.022143051 -0.018493494 0.03862188 0.06630253 0.070866354 -0.04416021 -0.10080908
0.07882306 0.059197795 -0.006618989 -0.10050243 0.061245114 0.05298281 -0.0066264966 -0.08591635
0.0053535113 -0.052213937 0.06451054 -0.049869437 0.092262015 -0.053347677 0.081718326 -0.0812736
-0.012105206 -0.07578108 0.08691422 -0.010441748 -0.013359648 0.09490316 0.060741764 -0.08674848
0.0149360355 0.09735614 0.02423493 0.0151707 0.040300984 -0.010592411 0.031455018 0.057601165
0.04276864 0.03457316 -0.1036186 -0.003778076 -0.009863526 -0.047452375 -0.11420337 -0.06098731
0.008930093 0.030097913 -0.08644862 0.03170397 -0.052110706 -0.015126951 -0.10215791 -0.07741665

conv_block_1.2.bias f4 [10]
00000000: e9e4 c93d 2694 033d d9ab 413d c028 d0bc
00000010: bbc1 e8bc f20c 85bd b14a 023d 12e2 af3c
00000020: 9028 303d e24c 55bb
0.09858114 0.032123707 0.047283027 -0.025410056 -0.02841269 -0.0649661 0.031809513 0.021470103
0.043007433 -0.0032547046

conv_block_2.0.weight f4 [10, 10, 3, 3]
00000000: ecc0 1ebc 2a82 2c3d 00d8 9cbb a743 653c
00000010: 9d7a 033c fb67 5ebd 0d25 03bd 0a55 38bd
00000020: 20e4 b6bd 8c9b 8ebd 21c9 24bd 6c28 76bc
00000030: 35a3 c23c 2730 643d 215f b13d 849a c63d
00000040: 84b0 e03c 93a6 273d 0fec 28bd 086f 1f3d
00000050: f5a5 b8bb f1f9 b03d 072e 113c 3b36 78ba
00000060: 1b1e 053d f1c5 6abd 32aa 93bd 1b19 46bd
00000070: 05be 923d 1aa2 b1bd 4668 013d 5632 b6bd
00000080: 5d46 c8bd a489 93bc 0cdc c83c 6b4e ac3d
00000090: 61dc 0fbd f73c d8bd 5b41 d0bd dcb7 123d
000000a0: a8e1 923d de61 ae3c 58c9 fabb 6e1a 91bd
000000b0: 48e5 8e3d e4f1 233d 8c47 79bd e112 05bd
000000c0: 0ac2 d8bc c669 ad3d 9ae0 6ebc 0c50 8ebc
000000d0: c36a 90bd 40b0 1c3d 5c9f 393c 7217 d23b
000000e0: e521 77bb b562 31bd 0b74 2e3d df34 80bd
000000f0: 9706 aa3c 4b56 17bd 7000 89bd 5dff bfbd
00000100: da18 2ebc 30f7 48bd e06c 113d 45cb 91bb
00000110: c2b3 ad3d 97f7 8ebd 2589 47bd 0e95 9f3d
00000120: 1600 acbd 325e 72bc 8e12 b13a e37a 94bc
00000130: d9a1 523d 5477 043d a498 debd cb6d d6bb
00000140: d7e2 84bd 8efa 36bd 6372 c8bd bd47 793c
00000150: 2865 ae3c 9a07 d0bc 77d9 c03d 6687 adbd
00000160: d6c6 cfbd e2f3 c13d 703a 0fbd 3dc6 9cbd
00000170: 5bbc d23d aa82 653d 4901 91bd 08e1 3b3d
00000180: e838 fcbc b6ec ad3d fcc9 cb3d cff2 8cbd
00000190: 7f3e 45bc 31a8 be3c fd47 62bd d684 c8bd
000001a0: e7d5 cf3d 017a d43d 5ba2 a23c 5d37 b13c
000001b0: e1b9 a2bc 4621 cfbd 1821 1e3d 0b44 81bd
000001c0: bbbd 6dbc 62ba b9bd 6533 b1bd 7907 863d
000001d0: b5c3 e9bc 1819 a3bd 7ba9 a03d c08d 3bbc
000001e0: d983 41bd ba30 86bd 0049 ab39 004c af3a
000001f0: 9d46 4fbd 408b b7ba 0ae9 8dbd 45f1 7dbd
00000200: ed6b d23d 7de4 55bc 3eec 27bc 9c70 a4bd
00000210: d03c cd3d 239c 803d 5bc2 92bc a421 953d
00000220: 1a41 e8bc a4a9 e5bc ddf2 b03c 2a3d 433d
00000230: cecb df3d 4bff 163d 6cd6 8d3c 2970 05bd
00000240: 64f0 8f3c a980 d03d 0c0a 61bd 4b67 64bd
00000250: e8ec 12bd d767 953d b21e 7d3d bd23 d53d
00000260: 00de 163c 27f6 89bd c191 e03c d6c8 8f3d
00000270: 2e3e babd b3ce 71bd 5f14 d2bd cbac 5fbd
00000280: 85fb c7bd a90c afbd fc81 463c 83c1 583d
00000290: 3b85 93bc 6571 6abc ea9a 673d c7d1 3c3d
000002a0: c4c9 1cbc edaa 82bd 4191 803d 36c4 463d
000002b0: 195f cfbb 2b73 983c 4a83 8c3d 79e5 093d
000002c0: 7b96 083c 006b 9e3d 83b4 97bd ee55 543d
000002d0: 65e8 9ebc 05ab b83d da6d 36bd e0eb ad3d
000002e0: 06d8 f8bc 0f87 c1bc 6746 38bd 74eb af3d
000002f0: 3aa3 5f3d defb bf3d 31d5 c5bd a6e7 453d
00000300: b2cb 05bd b174 873d 3cbf 1e3d 8a7a b23c
00000310: 91fb 9bbd 31b9 1f3d 1e9a 90bd c45c 1ebd
00000320: 885b 343d 511d bfbd 4de1 b0bd 06ac b63d
00000330: 2f9f 86bd eefa 7ebd d56b 483d fc95 a0bd
00000340: 7984 a6bd 166c 9fbd 1061 07bd 9490 95bd
00000350: 0f49 cf3d 74d0 fc3c 1fdf 8dbd ca00 433d
00000360: 3f2d 27bd 8e03 32bd 9e42 a43d 4f22 a2bd
00000370: 93f3 5a3d 816b bcbd 3275 a83d 8711 91bd
00000380: bc14 87bd 1264 c7bd 8788 c1bd cf83 873c
00000390: a323 9abd aad2 d8bd 8bac 88bd 8f52 9cbc
000003a0: 8d13 d2bc d4e1 803d 075b 0cbd 57ee 65bd
000003b0: 01bd 163d 5afd f0bc d4be c73d 5b5c 3d3d
000003c0: 02b3 64bd 5743 c2bc 7a2a cb3d b7fa b5bc
000003d0: 9cc8 883d 1f64 c83d 9a64 4abd 8f9d 2dbd
000003e0: bde1 bfbd d350 3dbc 1b8b a2bc 0e86 c93d
000003f0: 2dee 60bd 83f2 983b 145d 84bd 1d7c 363d
-0.009689551 0.04211632 -0.0047864914 0.01399318 0.008024839 -0.054298382 -0.032017756 -0.045002975
-0.0893023 -0.06963262 -0.040230874 -0.015024286 0.023759464 0.055709984 0.086607225 0.0969744
0.02742792 0.040930342 -0.041240748 0.038924247 -0.005635018 0.086414225 0.008861071 -0.000946853
0.032499414 -0.057317678 -0.072101966 -0.048363786 0.071651496 -0.086734965 0.031593584 -0.088963196
-0.09779046 -0.018009968 0.024518989 0.084133945 -0.03512228 -0.10558503 -0.101687156 0.035819873
0.07171947 0.021286901 -0.0076533966 -0.07085119 0.06977326 0.040025607 -0.060859248 -0.032488707
-0.026459713 0.0846744 -0.014579916 -0.017372154 -0.07051613 0.038254023 0.011329498 0.0064114863
-0.0037709412 -0.043307025 0.042591136 -0.06260084 0.020755095 -0.03694753 -0.066895366 -0.093748786
-0.010626042 -0.04906386 0.035504222 -0.0044492804 0.08481552 -0.06980818 -0.048714776 0.07792102
-0.08398454 -0.014792966 0.0013509558 -0.018125003 0.05142388 0.032340363 -0.10868958 -0.00654385
-0.06488579 -0.04467254 -0.097874425 0.015214858 0.02128847 -0.02539425 0.09416478 -0.08473091
-0.10145347 0.09470345 -0.03496784 -0.076549985 0.10289832 0.056032814 -0.07080323 0.045868903
-0.030788854 0.08492415 0.09950635 -0.068822496 -0.012038826 0.02327356 -0.055244435 -0.097909614
0.101482205 0.10374833 0.019852808 0.021632845 -0.019864025 -0.10113768 0.03860578 -0.06311806
-0.014510567 -0.09068753 -0.08652381 0.06544394 -0.028535703 -0.07963771 0.07844826 -0.01144737
-0.04724488 -0.065522626 0.0003267005 0.001337409 -0.05060445 -0.0014003292 -0.06929214 -0.06199767
0.102744915 -0.013054964 -0.010249196 -0.08029291 0.10021365 0.06279781 -0.017914942 0.07281807
-0.028351355 -0.028034993 0.021600181 0.047665752 0.109275445 0.03686456 0.017314158 -0.032577667
0.017570682 0.1018079 -0.054941222 -0.05576257 -0.035870463 0.072951965 0.06179685 0.10407207
0.009208202 -0.06736403 0.02741325 0.07020728 -0.09093891 -0.059035014 -0.10257792 -0.054608148
-0.097647704 -0.085473366 0.012115952 0.052918922 -0.018007865 -0.014309262 0.056544222 0.046098497
-0.009569589 -0.06380258 0.06277705 0.048526965 -0.006328475 0.018609604 0.06860979 0.033666108
0.008336659 0.077352524 -0.07407477 0.05183976 -0.019397924 0.090169944 -0.044538356 0.08492255
-0.030376446 -0.023623971 -0.044989016 0.08589831 0.054599024 0.09374212 -0.09659804 0.04831662
-0.032664962 0.06614054 0.038756594 0.021786947 -0.07616342 0.03899497 -0.070606455 -0.038662687
0.044032604 -0.093317635 -0.08636723 0.089195296 -0.065733306 -0.062251024 0.04893096 -0.07841107
-0.08130736 -0.07784288 -0.03305155 -0.07302967 0.10121357 0.030861117 -0.069273226 0.047608174
-0.040814634 -0.04346042 0.08020519 -0.079167 0.053454947 -0.09200192 0.08225478 -0.07083421
-0.06595752 -0.09735884 -0.09449869 0.016542343 -0.075263284 -0.10587056 -0.06673535 -0.019082336
-0.025644088 0.06293073 -0.034266498 -0.0561355 0.036801342 -0.029417682 0.097531945 0.046230655
-0.055834778 -0.02371375 0.09920211 -0.022214277 0.06678888 0.097847216 -0.049412347 -0.042386588
-0.09369228 -0.0115549145 -0.019841721 0.09840022 -0.054914642 0.0046675815 -0.06463066 0.044551957

conv_block_2.0.bias f4 [10]
00000000: f63d 84bc 0493 9bbd 3f31 c43d 606b d03d
00000010: 01ed b23c 0124 c5bd 7f8e 823c 9b74 cabd
00000020: 6134 b8bd 7496 83bd
-0.016142827 -0.075964004 0.095797054 0.1017673 0.021841528 -0.09626008 0.015937088 -0.09885522
-0.089943655 -0.06425181

conv_block_2.2.weight f4 [10, 10, 3, 3]
00000000: 64ba 87bc 7e9a fbbc 496c a9bd 45cd 8c3b
00000010: 6a88 7f3d 1e1e 823d eef2 cebd 7943 3d3c
00000020: 3e22 a53d fe8e 0abb 0aef a1bc e920 8e3d
00000030: a264 313d 1efd 1c3d c1f3 903d e2d8 a03c
00000040: 4210 89bd 2608 8ebd 6a96 21bd a042 1d3d
00000050: 3009 e6bd 109a 15bd 435a 94bd 91e2 093d
00000060: 91d7 563d 9007 69bc e302 3cbd 698c ad3d
00000070: b227 82bd eafa 643c 1f80 d1bd 2fd3 1bbd
00000080: 2dbf 153d fed4 463d c10e c2bd 54c3 0abd
00000090: 732e 67bd e3dd c9bd a2e9 eebd 1bc1 86bd
000000a0: e183 84bd 181f 2d3d 4439 763d ef7f 94bd
000000b0: 381d 33bd 1c36 df3c 2243 173d 2069 1a3b
000000c0: f0b3 87bd 597d 9fbd 84a0 e53c d189 40bd
000000d0: 6a0c 32bd 1afc 14bd d106 5ebd 9373 af3c
000000e0: 0542 29bd 38dd 49ba 000e f3bb 3634 7c3d
000000f0: de01 adbd 663e a43b cffe 463c a05b 533c
00000100: bfb8 4dbd 44af 1ebd c148 3abd c6f3 c2bd
00000110: 48e1 0e3c 209f 453b c025 8c3c 3ef1 493d
00000120: ac5f 1ebd 0fe8 8a3d 0044 313b 3fdf 913d
00000130: 0bfc 923d 6291 71bd cb20 953d 9c44 34bd
00000140: b0e2 fc3b f37e c8bd 692a 913d 1815 87bd
00000150: f231 4d3d 4f79 ab3d 1a50 6f3d 87bd 9ebd
00000160: 6333 4ebd 16f7 483d 5bdd 963d dd57 a43d
00000170: e6ae 263d c418 e53c dec8 18bd c0ce 9cbc
00000180: fc8e cdbc ce8d 2dbd a0f3 9bbd 89f7 0abd
00000190: b3ae 3abd d404 a5bc f81e 063d a3d6 f63c
000001a0: a53e c2bd 8480 8a3c bafd 503d 9b35 983d
000001b0: 8cd9 8fbd 93ce adbc 1c98 febc 2a3c a33d
000001c0: cdb6 d33d f45a 933d 4496 ab3b adff b4bc
000001d0: b9be a1bd 922a f3bb 890f bebd 0689 873d
000001e0: c693 183c ed77 c63d 9049 883c 4fe7 a6bd
000001f0: 4b06 683d 63a3 16bd 944a 3f3d 2de0 273d
00000200: 4a8a 9a3c 4661 28bd 2c21 3cbd d94a 663d
00000210: a9c6 9fbd d7cc 553d 5580 8e3d 10c5 a6bb
00000220: 881a 16bc f048 a2bd 432a 913d 6f93 d43d
00000230: 2683 5cbd 60bc e23b 44c9 813c 56be 063d
00000240: cee2 9b3d 1c7b 8d3d 4b9a c0bd a2bb be3d
00000250: 1899 dd3d 9882 83bd 06c4 87bd bdaa 053d
00000260: 7566 a1bd 7109 c1bd aa91 7b3d 6041 b33b
00000270: c85f 15bd 81da c33d d2be c5bd 08d0 b6bc
00000280: 0000 34ba 724d 123d 643a c93c 4074 82bd
00000290: 6d0a a33d 840c b1bd 00ba 113b 74ef 6bbd
000002a0: f07a 21bd d438 b03c 18fb 9ebd 0fd3 bdbd
000002b0: e440 c43c bfa0 8e3d dc74 98bc 7c57 fb3c
000002c0: a3df d6bd f0f6 c1bb 0358 5fbd b487 bbbc
000002d0: 56cd b0bd 16b9 c53d 7971 2bbd 6f72 d33d
000002e0: 4941 7bbd 02bf bbbd fd03 b8bd fb94 6abd
000002f0: c270 57bd 3c26 d53d 3baa a0bd 1d5e 21bc
00000300: bb1d c0bd c6e7 923d e17c c43c 20aa 95bc
00000310: a873 cbbd 4b60 853d 3707 c53c 2c38 d3bd
00000320: e696 c13d 735f a2bd bf23 83bc 166c abbd
00000330: 623d 783d b746 3ebc ad0d 4cbd 9422 0239
00000340: 5567 9a3d 203f 48bc e79d f3bc c5f5 21bd
00000350: e569 c4bd 807c b3bc afb5 7b3d 6c74 ef3c
00000360: b171 85bc 3434 87bd 49be 5ebd c4d0 55bd
00000370: a43b a83d 864d 9abc 06d5 cdbd ffa6 a93b
00000380: f13f c0bd a93f b33d 4404 f13c 3a7e d3bd
00000390: 7200 463d 625f 033d cfdd b53d 43ed 35bd
000003a0: e7f6 d43d 46e8 1a3d b223 543d 0f78 fabc
000003b0: f76c d1bd 54dc ad3d 475a bf3d 634e a4bd
000003c0: a6cc 92bc 2170 61bd 3f39 febc 4b03 c6bd
000003d0: da98 b9bd 5c50 a4bd 1455 8bbd e40b a8bd
000003e0: 0ed9 8fbd 00ef aabd 72b1 0abd 8540 a1bd
000003f0: ede7 d63d 0873 443c 9244 4bbd 3827 d1bd
-0.01656837 -0.030713316 -0.08272607 0.004296931 0.062385954 0.06353401 -0.10104929 0.011551731
0.08063172 -0.002114236 -0.019767303 0.06939871 0.04330886 0.03832733 0.07077742 0.019634668
-0.06692554 -0.06935148 -0.039450087 0.038393617 -0.11232221 -0.03652388 -0.072437786 0.033663336
0.052451674 -0.014222994 -0.04590119 0.08474047 -0.063552275 0.013975838 -0.10229515 -0.038043197
0.036559273 0.04854297 -0.0947547 -0.033877686 -0.05644078 -0.09856775 -0.11665656 -0.06579801
-0.064704664 0.04226598 0.060113207 -0.07250964 -0.043729037 0.027247481 0.036929257 0.0023561195
-0.06626117 -0.0778758 0.028030641 -0.047006432 -0.04346887 -0.036373235 -0.05420572 0.021417415
-0.041322727 -0.00077005057 -0.0074174404 0.06157323 -0.08447622 0.0050123213 0.012145712 0.012900263
-0.050225016 -0.038741365 -0.04547954 -0.09519152 0.008720703 0.003015466 0.017107844 0.049302332
-0.03866546 0.06782543 0.0027048588 0.07122659 0.0717698 -0.05897654 0.072816454 -0.044010743
0.007717453 -0.09789839 0.07088167 -0.0659582 0.05009646 0.08372747 0.058426 -0.07750993
-0.050341975 0.049063765 0.07366439 0.08024571 0.04069414 0.02796591 -0.037300937 -0.019141555
-0.025092594 -0.042371564 -0.07614827 -0.033927474 -0.045576762 -0.020143904 0.032744378 0.030131644
-0.09484605 0.016906984 0.051023223 0.074320994 -0.07023916 -0.021216666 -0.03107839 0.0797046
0.10337601 0.07195082 0.005236419 -0.022094572 -0.078977056 -0.0074208463 -0.09280307 0.06617932
0.009312576 0.09690843 0.01663664 -0.08149587 0.056646626 -0.03677691 0.046701983 0.040985275
0.01886477 -0.041108392 -0.045930073 0.056223724 -0.07801563 0.052197304 0.06958071 -0.0050894096
-0.009161599 -0.07924068 0.07088139 0.10379683 -0.05383601 0.0069194287 0.015843041 0.032896362
0.07611619 0.06908247 -0.09404429 0.09313132 0.10820216 -0.06421393 -0.066291854 0.03263353
-0.0788087 -0.09425629 0.061418213 0.00547044 -0.036468297 0.09563161 -0.09655537 -0.022315994
-0.0006866455 0.03571839 0.024563976 -0.06369829 0.07960973 -0.08644965 0.0022236109 -0.057601407
-0.039423883 0.021511473 -0.07762736 -0.09268772 0.023956724 0.06964254 -0.01861041 0.030681364
-0.10491874 -0.00591933 -0.054527294 -0.022891857 -0.08632915 0.09654443 -0.041856263 0.10324561
-0.061341558 -0.09167291 -0.08985136 -0.057270985 -0.05259777 0.10407683 -0.07844969 -0.0098490985
-0.09380671 0.071731135 0.023985328 -0.018269598 -0.09934169 0.06512507 0.024051292 -0.10313448
0.0945261 -0.07928362 -0.016008256 -0.08370225 0.060605414 -0.011613539 -0.04981773 0.00012410647
0.0753924 -0.012222081 -0.02973838 -0.039541025 -0.0959051 -0.021909952 0.061452564 0.029230319
-0.016289564 -0.06601754 -0.05438069 -0.052201048 0.082145005 -0.018835794 -0.100503966 0.005177378
-0.09387196 0.087523766 0.02942098 -0.1032681 0.04834027 0.032073386 0.08880197 -0.044415724
0.103986554 0.03781917 0.051791854 -0.030574827 -0.102258615 0.0848929 0.09343391 -0.080227636
-0.01791985 -0.055038575 -0.031033156 -0.09668597 -0.09062357 -0.0802314 -0.06803337 -0.08205393
-0.07023822 -0.08346367 -0.03386063 -0.07873634 0.10493455 0.011990316 -0.04962594 -0.102125585

conv_block_2.2.bias f4 [10]
00000000: 40a4 283d 2b43 a7bc 2b58 873d c449 e63c
00000010: 1c64 d5bd f2f0 7cbd 4267 29b7 cba2 d1bd
00000020: cb27 debb 7fc5 e5bc
0.041172266 -0.02041777 0.066086136 0.028111346 -0.10419485 -0.06175322 -1.0097227e-05 -0.102361284
-0.006779646 -0.028048275

classifier.1.weight f4 [3, 1690]
00000000: e8d2 743b 3e8a 793b 43fa 823c e85f adba
00000010: 3302 e93b d751 9cbc 6670 ec39 e628 30bc
00000020: 952b d3bb 59fd b43b d625 b9bc 55bd 2bbc
00000030: 627e 73bc 6197 64bc 8c42 293b 6213 833c
00000040: c4f9 9d3c 0ceb 73bc abe6 5abc df64 3bbc
00000050: 3f39 68bb d3cc dfbc 02d7 813c 3c89 893c
00000060: 72c3 afbc 1461 b1bc b84a 97b9 3c0b 803c
00000070: 2bbf 55bb 8293 b1bc 8495 85bc 50d4 663b
00000080: ac82 dabc b03f 803c 74f9 d8bc 2034 bfbb
00000090: 8056 90bc 3362 133c f793 e03b 5a00 22bc
000000a0: 5086 a53c b43d 403c d59f ea3b f7cf aebc
000000b0: 8535 d7bc ecdb 8cbc 6a3b 32bc 5158 883c
000000c0: 08c7 90bc 4a9a d7bc 888a 1e3c 44be 933c
000000d0: e676 673c 7e0a 03bc 4201 593c b9d8 a43c
000000e0: a889 d8bc dc1f 50ba 7e66 10bc 04a9 e7bb
000000f0: 582c 52bc 0310 723c 7d5c 8ebc d59d 7db9
00000100: 5d72 f3b9 e6c3 a23b 0876 613c aa6a 16bc
00000110: 88ad cebc c858 723c db84 35bc cc61 2f3c
00000120: 1c3c 543c c8ec 8e3b f2b9 8e3a 7d82 48bc
00000130: 0ac5 3a3c 5085 873c 06f2 1fbc 3461 0abc
00000140: aafe 0ebc cae5 193c d493 a93b 8d5d 093c
00000150: 4e7d d0bc a5f7 f4bb 7626 bc3b fded d53b
00000160: ca72 8b3c 69d6 873c 85e5 21bc 4ec7 a83c
00000170: 6271 a7bc dcf6 193c 7080 d13a 5a03 983a
00000180: c6cb 283c e520 85bc 143c 54bc 84c5 7abc
00000190: 9de5 5d3c 855a f93b 93f6 e7bc b58e 7ebc
000001a0: c2b6 a73c 19a3 1abc edfc 95bc fc15 ae3b
000001b0: e2f4 7b3a 0a46 e8bb 899a 4c3c 1d5f 163c
000001c0: 2dae 973c 53d9 9a3c 910b 5c3c 96fe 09bb
000001d0: 397b 1bbb 0c48 7f3c 9896 a13c 8097 8d3c
000001e0: a036 873b 9963 1a3b 75b0 a83c 6719 d037
000001f0: 29d9 1e3c 1fcc 783a 8c98 8d3c 1ff1 aabc
00000200: f07c a3bc 4530 3ebc 76dd 993c 17bc 983c
00000210: ebec a3bc c970 893c 880b 8ebb e9c9 51bc
00000220: ea32 983c eeb4 eaba 2fb2 cdb9 042b 6d3c
00000230: a8c2 a2bc 614d 22ba 2e5b 2d3c 9f53 9b3c
00000240: 2a87 7ebc c195 973c 8008 613b ea58 013c
00000250: e0cf d2bc 8b1d 073c ff40 79bc 45e9 b43b
00000260: 8bb9 a237 f5e1 82bc 4b94 9fbb 36b7 54bc
00000270: ed9d e1bc 0e25 aabc 7319 9d3a 4058 5dbc
00000280: 69e0 7ebb 50be 8abc 76c4 6bb9 1ae4 f33b
00000290: 1802 2c3b 5cd9 cbbc d3db 8e3c 8185 9d3a
000002a0: f5ee a8bb fb61 b8bb 85ed 5dbc a88c dfbb
000002b0: 2c39 be3c 9df7 e23b 7e13 32bc fec9 2f3c
000002c0: 744a 933b c425 8abc 1fcb efbb 5137 89bc
000002d0: d6d9 84bc ae5f e0bb 0e75 e73c 1384 7b3c
000002e0: ea7f 1e3b ac08 abbc 52de a73a aba4 d0bc
000002f0: 5f05 cbbb 4b0a 44bc 1c8c 5b3b ef9e 3d3b
00000300: a1df 84bc 9cfa 8c3c 68a6 4c3c 5035 63bc
00000310: 228c 4bbb c698 87ba d52c 82bc 09b7 bbbc
00000320: 2785 af3c 608c 8fbc 6aa6 1c3c c72c db3c
00000330: 5c39 abbc 3a8d e9ba 9577 5bbb 8f18 29bc
00000340: 8a26 8f3c 6279 bf3b f901 5d3c 7e85 823c
00000350: ded3 ef3a 86e5 4ebc 7dec 67bb c66b 2ebc
00000360: 701f 733c 0b93 8f3c 50aa 743c 7421 a23a
00000370: ee6c 5dbc 105f e1bb 8d27 86bb fabc ecbb
00000380: f555 0d3c c9e2 bfbc c8a8 ea3a c5ae b6bc
00000390: 4206 4fbc 1f54 8d3c 1bf9 95bc b8cf 8bbc
000003a0: 1ef2 bbbb 80ca a8bb e046 ba3b a533 56bc
000003b0: 0df5 163c 67d4 6b3c d19a a43c 1ac6 d1ba
000003c0: 9fef eeb8 8ddc e93b 8b63 e639 2aac ee3c
000003d0: f49b d53c 57ee 363a 44bd f43b 70a2 d1bc
000003e0: 6373 d3ba 7a3f a43c 01bb 2539 f6c8 23bc
000003f0: 3d6f 90bc 5c23 09bc b069 973c b252 7d3b
0.0037357155 0.0038076784 0.015988475 -0.0013227435 0.007110858 -0.019081993 0.0004509717 -0.010751938
-0.0064444044 0.0055233655 -0.02260105 -0.010482152 -0.014861675 -0.013952107 0.0025827019 0.016000453
0.019284137 -0.0148875825 -0.01336066 -0.011437624 -0.0035434512 -0.027319347 0.015849594 0.016789071
-0.0214555 -0.021652736 -0.00028856634 0.015630357 -0.0032615166 -0.021676783 -0.016306646 0.0035221763
-0.026673637 0.015655369 -0.026486136 -0.005835071 -0.017619371 0.0089955805 0.0068535763 -0.009887779
0.020205647 0.011733461 0.0071601667 -0.0213394 -0.026270637 -0.01719471 -0.010878423 0.016643675
-0.01767303 -0.026318688 0.009676583 0.018035062 0.014127469 -0.007998107 0.013244929 0.020122873
-0.026432827 -0.0007939318 -0.008813499 -0.007069709 -0.012827955 0.014774325 -0.017378086 -0.00024186757
-0.0004643378 0.0049672006 0.013761051 -0.009180704 -0.02522923 0.014791675 -0.0110790385 0.010704469
0.012953784 0.0043617226 0.0010889156 -0.012238142 0.011399517 0.01654306 -0.009762293 -0.008446027
-0.008727709 0.009393165 0.005175093 0.008384121 -0.025450375 -0.0074758106 0.0057418896 0.0065286146
0.01702251 0.01658173 -0.009881382 0.020602848 -0.020439807 0.009397235 0.0015983712 0.0011597679
0.01030249 -0.016251037 -0.012953777 -0.01530588 0.013543514 0.0076096677 -0.028315818 -0.015536954
0.020472888 -0.0094383 -0.018309081 0.0053126793 0.00096113805 -0.0070884274 0.012488016 0.00917795
0.01851567 0.018902456 0.013430492 -0.0021056286 -0.002372457 0.015581142 0.019725129 0.017284155
0.004126385 0.00235579 0.020591954 2.4807361e-05 0.00969533 0.00094908656 0.017284654 -0.020866929
-0.019957036 -0.011608188 0.018782359 0.018644376 -0.020010432 0.016777413 -0.0043348707 -0.012804487
0.018578965 -0.0017906704 -0.00039233404 0.014475588 -0.01986821 -0.000619134 0.010580821 0.018960772
-0.015535155 0.018504025 0.0034337342 0.007894734 -0.025733888 0.00824679 -0.01521325 0.005520972
1.9398305e-05 -0.015976885 -0.004869973 -0.012983134 -0.027541125 -0.020769622 0.0011985734 -0.01350981
-0.0038891083 -0.016936451 -0.00022484534 0.0074429633 0.0026246365 -0.024883918 0.017438805 0.0012017937
-0.005155439 -0.0056269146 -0.013545399 -0.0068221875 0.023220621 0.0069264905 -0.010868905 0.010729311
0.0044949595 -0.016863711 -0.007317915 -0.01675001 -0.016217154 -0.0068473434 0.028254058 0.015351313
0.002418513 -0.020878159 0.0012807345 -0.025469145 -0.0061957086 -0.011965345 0.003350026 0.0028933843
-0.016219916 0.017209344 0.012490846 -0.013867691 -0.0031058867 -0.0010345213 -0.015890518 -0.022914426
0.021425797 -0.01752299 0.009561161 0.02675475 -0.020901375 -0.0017818578 -0.0033488024 -0.010320797
0.017474432 0.0058433274 0.01348924 0.015932795 0.0018297394 -0.012627965 -0.003538876 -0.010645812
0.014839038 0.01752617 0.014933184 0.0012369589 -0.01351474 -0.0068777874 -0.0040940703 -0.007224676
0.008626451 -0.02342357 0.0017903084 -0.022300133 -0.012635769 0.017252026 -0.01830726 -0.017066821
-0.0057356497 -0.005151093 0.0056847185 -0.013073836 0.009213698 0.014393902 0.020093353 -0.0016004473
-0.00011393357 0.0071368874 0.00043943184 0.029134829 0.02607534 0.00069782644 0.0074688513 -0.025590152
-0.001613241 0.0200498 0.0001580529 -0.009996643 -0.017631168 -0.008370247 0.018483013 0.0038654027

classifier.1.bias f4 [3]
00000000: 8215 31bc b220 d73b d292 d83c
-0.0108083505 0.006565177 0.026437197
