models/05_going_modular_cell_mode_tinyvgg_model.pth (torch, 36691 bytes, 10 tensors)

conv_block_1.0.weight f4 [10, 3, 3, 3]
0	0x3e19927c	0.14997286
1	0x3e264130	0.16235805
2	0xbd3270d3	-0.04356463
3	0x3e36681c	0.17813152
4	0xbd25652c	-0.04037969
5	0x3d262776	0.040564977
6	0xbdbeb741	-0.09312297
7	0x3de86bdd	0.11348698
8	0x3e2d8e3d	0.16948791
9	0xbe2cebea	-0.16886869
10	0x3e10e738	0.14150703
11	0x3bfb71d9	0.007673484
12	0x3de68fab	0.11257871
13	0x384ba000	4.8547983e-05
14	0x3d882990	0.066485524
15	0xbd7506f1	-0.059821073
16	0x3deeb712	0.11656012
17	0xbb64b352	-0.0034896922
18	0xbdb21787	-0.08695894
19	0x3d63a15b	0.055573802
20	0xbdaf2047	-0.08551078
21	0xbcc3dd64	-0.023909278
22	0xbd96aa45	-0.07356695
23	0x3e06a802	0.13150027
24	0xbe230e40	-0.15923405
25	0xbdc198dc	-0.09452984
26	0xbd76746b	-0.06016962
27	0xbd4f2f19	-0.050582025
28	0x3da9fb0a	0.08299835
29	0xbdfffa96	-0.12498967
30	0x3e721b07	0.23643123
31	0xbdccd6fd	-0.10001943
32	0x3e5aa47c	0.21351808
33	0x3dbdefc2	0.09274246
34	0xbaa7f2a7	-0.0012813405
35	0x3e39f13e	0.18158433
36	0x3d4b2514	0.049595907
37	0x3e31cc05	0.17362984
38	0x3d1f7a0f	0.038934764
39	0xbd3d5fd2	-0.04623396
40	0x3d84e5cc	0.06489143
41	0xbd17ce0c	-0.037061736
42	0x3dbb78ec	0.091539234
43	0x3e3aa862	0.18228295
44	0x3dfe8ad3	0.12428822
45	0xbcd3931d	-0.025826985
46	0x3e29fcee	0.16600391
47	0x3db5645c	0.08857033
48	0x3e19385e	0.14962909
49	0xbd8db699	-0.06919593
50	0xbe0ffeed	-0.1406209
51	0xbce9f658	-0.028559849
52	0xbdd3e33d	-0.10346077
53	0x3e5163b3	0.20448188
54	0x3c831cda	0.016004968
55	0x3d2c1add	0.042017806
56	0x3cb4f2bc	0.022088401
57	0xbd2ec9fa	-0.04267309
58	0x3de935ab	0.113871895
59	0xbe31234b	-0.1729862
60	0xbce2deae	-0.027694073
61	0xbe2dd270	-0.16974807
62	0x3cbbabd1	0.022909077
63	0xbda74026	-0.08166532
64	0x3d3f7d54	0.04675038
65	0xbd61d845	-0.05513789
66	0x3e122eb4	0.14275628
67	0xbe036c71	-0.12834336
68	0xbe048743	-0.12942223
69	0xbe08573b	-0.13314526
70	0x3e1f4af8	0.15555942
71	0x3d45d9e7	0.04830351
72	0x3e198c63	0.1499496
73	0xbe413a35	-0.1886986
74	0xbe64d2a6	-0.22345981
75	0xbe3e3a9b	-0.18577044
76	0xbe23fd48	-0.16014588
77	0x3d3f5cd6	0.046719395
78	0x3d08a9bd	0.033365
79	0x3e01db67	0.12681352
80	0xbe0656a9	-0.13118996
81	0xbe20f19b	-0.15717165
82	0x3d97a1aa	0.07403882
83	0xbddcae19	-0.10775394
84	0x3dbedbbe	0.09319256
85	0xbd902c96	-0.07039754
86	0x3da9a8cd	0.08284149
87	0xbe2fd871	-0.1717241
88	0xbdf61389	-0.12015445
89	0x3d073410	0.033008635
90	0x3d89f947	0.06736999
91	0xbcc38570	-0.023867339
92	0x3e094b92	0.13407734
93	0x3e261471	0.16218735
94	0xbdda427a	-0.10657211
95	0xbd9acb97	-0.07558363
96	0x3e5517f6	0.20809922
97	0xbd03ad10	-0.032147467
98	0xbd25cb31	-0.04047698
99	0xbe47e9c9	-0.19522776
100	0xbdf239c2	-0.11827423
101	0x3ce20bcb	0.027593514
102	0xbce86fd6	-0.02837364
103	0xbe0c9e6e	-0.13732311
104	0xbaee690d	-0.0018189267
105	0xbe059a8b	-0.13047235
106	0xbe21241f	-0.15736435
107	0xbddb495c	-0.107073516
108	0xbe20a28d	-0.15687008
109	0xbde677ee	-0.112533435
110	0x3e3fcb09	0.18729796
111	0x3d39b929	0.045342598
112	0x3d88b673	0.066754244
113	0xbe3a44f7	-0.1819037
114	0xbdf8e869	-0.12153704
115	0xbd7233e5	-0.05913152
116	0x3cedad45	0.029013285
117	0xbe0f6d97	-0.14006649
118	0xbd709b0a	-0.058741607
119	0xbde422ad	-0.111394264
120	0x3ce47319	0.027886914
121	0xbd4ef3ab	-0.05052535
122	0xbbd10ce7	-0.006379712
123	0xbddbf30e	-0.107397184
124	0xbde4c5e4	-0.11170557
125	0xbdcd9c17	-0.100395374
126	0xbd93003e	-0.071777806
127	0xbe29919d	-0.16559453
128	0x3e05d503	0.13069539
129	0xbd35709f	-0.044296857
130	0x3e1a7189	0.15082373
131	0x3d076fa8	0.033065468
132	0xbe2a8e84	-0.16655928
133	0x3dfdfa37	0.1240124
134	0xbd8c6914	-0.068559796
135	0xbdcd7d1f	-0.100336306
136	0xbe3d118c	-0.18463725
137	0xbe5d083b	-0.21585171
138	0x3d0279a8	0.0318543
139	0xbd7f893c	-0.062386736
140	0x3d67517f	0.056474205
141	0xbe40b889	-0.18820395
142	0x3de77785	0.113020934
143	0xbe2a930a	-0.16657653
144	0xbd7b14ce	-0.061299138
145	0x3c5e8411	0.013581292
146	0x3d9591ab	0.073031746
147	0x3e049345	0.12946804
148	0x3e1c9aa9	0.15293373
149	0xbe31264b	-0.17299764
150	0x3c68eb70	0.014216289
151	0xbdea3453	-0.11435761
152	0xbd46a4f0	-0.04849714
153	0xbe31cb6e	-0.17362759
154	0x3e17df47	0.14831267
155	0xbe2c6951	-0.1683705
156	0x3d9e44cb	0.07727965
157	0x3d37724b	0.044786733
158	0x3d23a02b	0.03994767
159	0xbe0ad3c9	-0.13557352
160	0x3e149e8e	0.14513609
161	0x3c763d26	0.015029227
162	0x3c559182	0.01303518
163	0xbe3a59d3	-0.18198328
164	0x3d8c2033	0.06842079
165	0xbd01adb0	-0.031659782
166	0xbdc24814	-0.09486404
167	0x3e1c7416	0.15278658
168	0x3d27f6f6	0.041007005
169	0xbde0ce88	-0.10976893
170	0xbdd7afd6	-0.10531585
171	0xbc99da84	-0.018780954
172	0x3dc7a3ec	0.097480625
173	0xbd7212aa	-0.05909983
174	0xbde1dbbd	-0.1102824
175	0xbd8eb2fb	-0.069677316
176	0xbe1d9b6f	-0.15391324
177	0x3d8c5102	0.068513885
178	0x3e17b505	0.14815147
179	0xbe4031ab	-0.18768947
180	0x3d161584	0.036641613
181	0x3db9c2a9	0.090703316
182	0x3cd52790	0.026019841
183	0xbd8bd099	-0.06826896
184	0x3dc8a730	0.097975135
185	0x3dbda6ba	0.09260316
186	0x3d95154f	0.07279455
187	0xbd07affc	-0.033126816
188	0xbd60b1dd	-0.054857124
189	0xbc041ece	-0.008063985
190	0xbd718910	-0.058968604
191	0xbda1cb30	-0.07900083
192	0x3dc53411	0.096290715
193	0x3e10dfd6	0.14147887
194	0xbd26d3c5	-0.040729303
195	0xbd93f54d	-0.07224522
196	0xbccef4b1	-0.025263162
197	0xbd17b120	-0.037034154
198	0x3cf489d6	0.029850882
199	0x3d2223fe	0.039585106
200	0xbe401fcb	-0.18762128
201	0xbdaf8c01	-0.085716255
202	0x3e18cdba	0.14922228
203	0x3d7f4e0b	0.062330287
204	0xbce1cffc	-0.027564995
205	0xbe090dad	-0.13384123
206	0xbe09b272	-0.13446978
207	0xbe3bc3f8	-0.18336475
208	0xbd914e11	-0.07094968
209	0x3d708b23	0.05872644
210	0x3de6c533	0.112680815
211	0x3da78875	0.08180324
212	0xbe34785a	-0.17624035
213	0xbe02e8fa	-0.12784186
214	0xbd2e2176	-0.04251238
215	0x3e32cf56	0.17461905
216	0x3c6c3f1f	0.014419346
217	0xbd859f3f	-0.065245144
218	0x3d7ad6d2	0.061240025
219	0xbda46574	-0.08027163
220	0xbe09b4b3	-0.13447838
221	0x3e024d68	0.1272484
222	0xbdb9efbe	-0.0907893
223	0xbd3acfcd	-0.04560833
224	0xbe4e5df2	-0.20153025
225	0x3e120691	0.14260317
226	0x3e21f4e2	0.15816072
227	0x3da8184e	0.08207761
228	0xbddb6978	-0.10713476
229	0xbe26d19c	-0.16290897
230	0xbe077b05	-0.13230522
231	0x3e2fba9a	0.17161027
232	0x3df16005	0.117858924
233	0x3e3d8774	0.18508703
234	0x3d5fc0db	0.05462728
235	0x3b3bfba9	0.0028683937
236	0xbd4140fd	-0.04718112
237	0xbe3d018e	-0.18457624
238	0xbe4b7bba	-0.19871417
239	0xbe59d6b1	-0.21273305
240	0x3d1d60ce	0.0384224
241	0xbe066353	-0.13123827
242	0xbd956231	-0.07294119
243	0xbde2d410	-0.11075604
244	0xbd0fa474	-0.035068944
245	0xbe0ab437	-0.13545309
246	0xbe00c496	-0.12574992
247	0x3d82bd62	0.06383778
248	0xbd6a45cc	-0.05719547
249	0x3df3517a	0.11880775
250	0xbd7ce2c0	-0.061739683
251	0xbe109033	-0.14117508
252	0xbd0b1520	-0.033955693
253	0xbdbf0ea9	-0.09328968
254	0xbd712a90	-0.05887848
255	0xbe3b9bd5	-0.18321164

conv_block_1.0.bias f4 [10]
0	0x3cb82833	0.022480106
1	0xbe4a91b0	-0.19782138
2	0x3dffac66	0.12484054
3	0x3e5cd1c1	0.2156439
4	0x3e77301e	0.24139449
5	0xbd894156	-0.06701915
6	0xbe2b2c10	-0.16716027
7	0x3ca7e7e1	0.02049631
8	0x3e2dd295	0.16974862
9	0xbe4424f7	-0.19154726

conv_block_1.2.weight f4 [10, 10, 3, 3]
0	0xbb665727	-0.0035147162
1	0xbd4d3cb7	-0.05010673
2	0xb91f5f4b	-0.00015198921
3	0xbcd78827	-0.02631004
4	0xbcdcfa26	-0.026974749
5	0xbcaecd61	-0.021338167
6	0xbd94303f	-0.07235765
7	0x3de0d1c3	0.10977509
8	0x3dd6fc39	0.104973264
9	0xbd9882eb	-0.074468456
10	0xbdae9738	-0.085249364
11	0xbdd49da6	-0.103816316
12	0xbe16e1f5	-0.14734633
13	0xbe213d90	-0.1574614
14	0xbcb75643	-0.02238
15	0xbddb323a	-0.10702939
16	0xbdf69461	-0.1204002
17	0xbd877db0	-0.0661577
18	0x3b3e3ed9	0.002902916
19	0x3bea5158	0.00715081
20	0x3d1f8145	0.03894164
21	0x3c6464f1	0.013940082
22	0x3bf6c74e	0.007531083
23	0xbc19834d	-0.009369683
24	0xbd720037	-0.059082236
25	0x3df7004c	0.120606035
26	0xbbeaf296	-0.007170032
27	0x3de7ad11	0.11312307
28	0x3d691cc4	0.0569122
29	0x3dedd49d	0.116128184
30	0x3e37e9f3	0.17960338
31	0x3e0587ad	0.13040037
32	0x3bef5774	0.0073041264
33	0x3e0290c4	0.12750536
34	0x3e396d62	0.18108132
35	0x3deee99a	0.1166565
36	0x3e1501ca	0.14551464
37	0x3e3c99ce	0.18418047
38	0x3d89e1ae	0.06732498
39	0x3daa57f6	0.083175585
40	0x3aedb0b1	0.0018134323
41	0x3d798184	0.06091453
42	0x3e1124de	0.1417422
43	0x3dfed74f	0.124434106
44	0x3c2ddefd	0.010612247
45	0xbdc2a296	-0.09503667
46	0xbd9e264c	-0.07722148
47	0xbe0c5861	-0.13705589
48	0xbde5f7cd	-0.11228905
49	0xbd030255	-0.031984646
50	0x3d71edb9	0.0590646
51	0x3d074b6a	0.033030905
52	0xbd7fa167	-0.062409785
53	0xbd8e08c7	-0.06935268
54	0x3daf1de4	0.08550623
55	0xbd364e66	-0.04450836
56	0xbc6d9930	-0.014501855
57	0x3d4f1dba	0.05056546
58	0xbd2d3f58	-0.042296737
59	0x3a454760	0.00075255893
60	0xbc1653f8	-0.009175293
61	0xbccc4af0	-0.024938077
62	0xbd5aea12	-0.053445883
63	0xbd2b99d8	-0.041894764
64	0xbca5a711	-0.020221265
65	0xbc91ad4e	-0.017782833
66	0x3e0e8646	0.13918409
67	0xbc59caaa	-0.013292948
68	0xbcec23f1	-0.028825732
69	0x3da9bfb9	0.08288521
70	0x3db29030	0.08718908
71	0x3dbedb31	0.09319151
72	0x3e22db3d	0.15903945
73	0x3e1c7536	0.15279087
74	0xbadbc245	-0.0016766271
75	0x3db146db	0.08656093
76	0x3e16f3f0	0.14741492
77	0x3da7aee7	0.08187657
78	0x3c7f4d9d	0.015582469
79	0x3e3e8852	0.1860669
80	0x3d633298	0.05546817
81	0xbd75d16f	-0.060014185
82	0xbdc2a045	-0.09503225
83	0x3b9a4960	0.004708454
84	0x3d3f5356	0.046710335
85	0x3cbf264c	0.023333691
86	0x3caac264	0.020844646
87	0xbda3b823	-0.07994106
88	0xbdc99b1a	-0.098440364
89	0x3af34b80	0.001856193
90	0x3de7cd22	0.11318423
91	0x3d9cf8a7	0.07664614
92	0xbd393a74	-0.04522176
93	0x3bb4ae43	0.0055139377
94	0xbd73f514	-0.059559897
95	0xbd0cadfa	-0.034345604
96	0x3d1cae93	0.038252424
97	0x3d99bd6e	0.07506834
98	0x3dd4c7e0	0.10389686
99	0xbd1349ef	-0.03595918
100	0x3e049570	0.12947631
101	0xbc500e93	-0.012698787
102	0x3dbe87dd	0.093032576
103	0x3e123fe3	0.14282183
104	0x3d535397	0.05159339
105	0x3e13801f	0.14404343
106	0xbd28cb39	-0.041209433
107	0x3b8d63f8	0.0043148957
108	0x3d710580	0.058843136
109	0xbcc5e2f4	-0.024156071
110	0xbcab3b36	-0.020902257
111	0xbd28729f	-0.041124936
112	0x3d9f6b36	0.07784121
113	0x3d677beb	0.05651466
114	0x3d212b3c	0.039347872
115	0xbd6ae766	-0.057349585
116	0xbdb5b30d	-0.08872042
117	0xbd9ddf66	-0.077086255
118	0xbd5bc395	-0.05365332
119	0xbe0958e1	-0.13412811
120	0xbddf79ef	-0.10911929
121	0xbc01f27f	-0.007931351
122	0xbd9e4779	-0.07728476
123	0xbd9f53ed	-0.077796794
124	0xbdd91f7e	-0.1060171
125	0xbe33f2cb	-0.17573087
126	0xbe404380	-0.18775749
127	0xbe09191a	-0.13388482
128	0xbe190d20	-0.14946413
129	0xbd606112	-0.054780073
130	0xbe014fe6	-0.12628135
131	0xbe191e51	-0.14952971
132	0x3b260c04	0.0025336752
133	0xbd7e6117	-0.06210431
134	0xbcc28d54	-0.023749031
135	0xbd12a0d1	-0.035797898
136	0xbd30ad77	-0.04313418
137	0x3d147173	0.036241006
138	0xbd85a3c9	-0.0652538
139	0xbd9d4e17	-0.0768091
140	0xbc0cd753	-0.008596259
141	0xbcc06ea6	-0.023490261
142	0xbd8a3ece	-0.0675026
143	0x3d89017f	0.066897385
144	0x3d9d60ad	0.07684455
145	0x3ceddb53	0.029035246
146	0xbc157e97	-0.00912442
147	0xbdc7a73f	-0.097486965
148	0xbcd9f2b8	-0.026604995
149	0x3caa34bd	0.0207771
150	0x3d050869	0.032478724
151	0xbc959ec3	-0.01826418
152	0xbd31c7af	-0.043403324
153	0x3d459761	0.04824007
154	0xbda91e5e	-0.08257745
155	0x3d8dbd40	0.06920862
156	0xbd6d4a11	-0.057931963
157	0xbc40cf13	-0.01176812
158	0xbd3de1bb	-0.04635785
159	0x3b9c002d	0.004760763
160	0xbd29677b	-0.041358452
161	0x3d7faea2	0.062422402
162	0xbdf74e94	-0.120755345
163	0xbccde71a	-0.025134612
164	0x3bda3ad0	0.006659843
165	0xbe2c3e6e	-0.1682069
166	0xbe37a2c4	-0.17933184
167	0xbb99c139	-0.0046922234
168	0xbc3b72d2	-0.0114409495
169	0xbe3fece6	-0.18742713
170	0xbde5634e	-0.112005815
171	0xbdd4e215	-0.10394684
172	0xbdb0b7b9	-0.08628792
173	0x3ca6c7f4	0.020359017
174	0x3ce5b964	0.028042503
175	0x3cb70c5c	0.02234476
176	0xbceb0484	-0.028688677
177	0x3dc72a15	0.097248234
178	0x3c76ed30	0.015071198
179	0xbd7ec5d9	-0.0622004
180	0xbcfce1cf	-0.030869393
181	0x3bf365a2	0.007427887
182	0x3ca88c8e	0.020574834
183	0xbdcd4d59	-0.100245185
184	0x3ca82f58	0.020530388
185	0xbd94c5d7	-0.072642975
186	0xbdeb4321	-0.11487413
187	0xbda03943	-0.07823422
188	0x3dad6e33	0.084682845
189	0x3d80654f	0.06269323
190	0x3d8ba236	0.06818049
191	0x3d43b0a7	0.04777589
192	0x3d5570d5	0.052109558
193	0xbd293ca9	-0.041317616
194	0xbd8a0c3e	-0.06740616
195	0x3d0d66ea	0.034521975
196	0xbd950533	-0.07276382
197	0xbda4f03d	-0.08053634
198	0xbd09dfde	-0.033660762
199	0x3c3ee1aa	0.011650482
200	0x3cf48313	0.029847657
201	0xbcc7cfdb	-0.024391105
202	0xbd35b6ce	-0.04436379
203	0xbc3a02a4	-0.011353169
204	0xbd869240	-0.06570864
205	0xbdb1b1f1	-0.08676518
206	0x3d16c92f	0.036812957
207	0xb95350d7	-0.00020152643
208	0x3da03b9e	0.07823871
209	0x3dace793	0.08442607
210	0x3cc6901b	0.024238637
211	0x3c949a7b	0.018140068
212	0x3bc8fd6a	0.006133725
213	0x3a591747	0.00082813617
214	0xbcdc3bc3	-0.026883965
215	0xbcd50c14	-0.026006736
216	0x3d213a7e	0.039362423
217	0x3dc8b79b	0.09800645
218	0xbcdfc984	-0.02731777
219	0xbd36829d	-0.044558156
220	0xbcd11cc8	-0.02552642
221	0xbd8d709a	-0.06906243
222	0x3c0c7e25	0.008574997
223	0x3dc63d45	0.09679655
224	0x3d83b2bc	0.06430575
225	0x3d463af6	0.048396073
226	0xbd9edf1d	-0.07757399
227	0xbd67b9c6	-0.05657365
228	0xbcbdb93c	-0.023159616
229	0xbc9f2a8c	-0.019429468
230	0x3c0e0b40	0.008669674
231	0xbdc62b85	-0.096762694
232	0x3d0661c2	0.032808073
233	0xbda4affb	-0.08041378
234	0xbd889884	-0.06669715
235	0xbdb37a32	-0.08763541
236	0x3dbc1951	0.09184516
237	0xbdcc6c73	-0.099816225
238	0x3da2d9ef	0.07951724
239	0xbb683aa0	-0.0035435334
240	0xbc48d9d8	-0.012258969
241	0x3d8706f3	0.06593122
242	0xbc1f9ff8	-0.009742729
243	0x3d87638d	0.06610785
244	0x3d9c1549	0.07621247
245	0xbdbb6d77	-0.09151738
246	0x3d262206	0.04055979
247	0x3ca30354	0.019899048
248	0x3cb9aa54	0.022664227
249	0x3c7c2180	0.015388846
250	0x3cec328c	0.028832696
251	0xbd4fb422	-0.050708897
252	0x3b943110	0.0045224503
253	0x3da7f61c	0.082012385
254	0x3d57c71e	0.052680127
255	0x3b3ae18a	0.002851578

conv_block_1.2.bias f4 [10]
0	0x3d81815b	0.06323501
1	0x3c0c9af6	0.008581867
2	0xbdf25288	-0.11832148
3	0xbdbaf3fa	-0.09128566
4	0x3c61b9dd	0.013777223
5	0xbd471715	-0.048605997
6	0xbc827c10	-0.015928298
7	0xbce56a89	-0.028004901
8	0x3c1c010a	0.009521732
9	0x3d3377bf	0.04381537

conv_block_2.0.weight f4 [10, 10, 3, 3]
0	0xbdac1fb2	-0.08404483
1	0x3c9ef230	0.019402593
2	0x3d4f5879	0.050621483
3	0xbdfd771b	-0.12376233
4	0xbe463a7d	-0.19358249
5	0xbe0a6a77	-0.13517176
6	0xbd9ff31f	-0.078100435
7	0xbd903fe2	-0.07043435
8	0xbc814acf	-0.015782742
9	0xbb7deb10	-0.0038744844
10	0xbd14948c	-0.036274478
11	0xbcfd2085	-0.030899296
12	0xbc803e09	-0.01565458
13	0x3e040567	0.12892686
14	0xbcede4b0	-0.02903971
15	0xbd762b54	-0.060099915
16	0x3d78e748	0.060767442
17	0x39d9207a	0.00041413662
18	0x3d9c02f5	0.076177515
19	0x3d43faf9	0.047846768
20	0x3d922e21	0.07137705
21	0xbd8d3495	-0.06894795
22	0x3d62b719	0.055350397
23	0x3d9133e5	0.07089976
24	0xbd7708fa	-0.060311295
25	0x3df7c0ee	0.12097345
26	0x3d8bd947	0.06828552
27	0xbc1b59a8	-0.009481825
28	0x3d90635c	0.07050201
29	0xbd36ae0a	-0.04459957
30	0xbd8a66b0	-0.06757867
31	0x3d3b8c01	0.045787815
32	0x3cf59b3b	0.029981246
33	0xbd849f30	-0.06475675
34	0x3d839d42	0.06426479
35	0xbdc7c302	-0.09753992
36	0x3e0c71f4	0.13715345
37	0x3e165af5	0.14683135
38	0x3e03378b	0.12814157
39	0xbd553e01	-0.052061085
40	0x3d728ef9	0.05921838
41	0x3df5aebf	0.11996221
42	0x3bf1f084	0.007383408
43	0xbbc8a75b	-0.006123466
44	0x3d9f3505	0.077737845
45	0xbda38c92	-0.07985796
46	0xbda7d159	-0.08194227
47	0x3d81d13d	0.06338737
48	0x3c30e0a5	0.010795747
49	0x3d9d33fe	0.07675932
50	0x3cc440b8	0.023956642
51	0x3cf12577	0.02943681
52	0x3d172283	0.036898147
53	0x3d4fffc7	0.050781038
54	0x3da1ae05	0.0789452
55	0x3c9833b1	0.018579336
56	0xbdc3ea19	-0.09566135
57	0xbb8b2023	-0.0042457744
58	0xbd37f908	-0.04491523
59	0x3c3d3ae0	0.011549681
60	0xbbff0859	-0.0077829775
61	0xbdd35605	-0.10319141
62	0xbcae88ff	-0.02130556
63	0xbc29e580	-0.0103696585
64	0xbd00c84b	-0.031441014
65	0x3dc42e91	0.09579194
66	0xbcbc47b2	-0.022983406
67	0x3d89cc2f	0.06728398
68	0x3ccf7e9a	0.025328923
69	0xbdb86a6b	-0.090046726
70	0x3cba13b2	0.02271447
71	0x3daff325	0.08591298
72	0xbd7ea73c	-0.062171206
73	0xbd708872	-0.058723874
74	0x3de8237b	0.11334892
75	0x3d90313f	0.07040643
76	0xbd7c37dc	-0.06157671
77	0x3d9f499a	0.0777771
78	0xbc9d5cf9	-0.019209372
79	0xbddde4ec	-0.10834679
80	0x3c0c7c88	0.008574612
81	0x3d40362b	0.04692666
82	0xbcc9bd22	-0.024626318
83	0x3cf32674	0.029681422
84	0xbd9cc33b	-0.07654425
85	0x3db07e93	0.08617892
86	0x3db4283a	0.08796735
87	0x3d7ec69b	0.062201124
88	0x3cb13996	0.021633904
89	0x3cf56702	0.029956345
90	0xbe1bbafb	-0.15208046
91	0xbda9996a	-0.082812145
92	0xbc2e970c	-0.01065613
93	0xbdd0bf74	-0.10192767
94	0xbe0fbf18	-0.1403774
95	0x3d61627e	0.05502557
96	0x3d6e9067	0.05824318
97	0xbdd032c1	-0.101659305
98	0x3c8a3a3e	0.016873475
99	0x3d8a003b	0.06738325
100	0x3dec69f5	0.11543647
101	0x3d7e5873	0.06209607
102	0x3de68095	0.11254994
103	0xbc9ca864	-0.019123264
104	0x3d9d36fb	0.07676502
105	0x3daeedaf	0.08541428
106	0xbdc9eed3	-0.09860005
107	0xbda64017	-0.08117693
108	0x3c2aa7de	0.010415999
109	0x3cfe4f65	0.031043718
110	0xbd804c3b	-0.0626454
111	0xbc581843	-0.013189378
112	0xbcd2641d	-0.025682503
113	0x3c6ab68c	0.014325749
114	0xbd3e4090	-0.04644829
115	0x3d287a0f	0.04113203
116	0x3da874d6	0.0822541
117	0xbd9ae849	-0.07563836
118	0x3b317390	0.0027076937
119	0x3c1dda37	0.009634546
120	0x3ca22048	0.019790784
121	0x3dc67563	0.096903585
122	0x3d00dcc5	0.031460542
123	0xbcba6b2b	-0.02275618
124	0x3db0d330	0.08634031
125	0xbd4ad6b5	-0.049521167
126	0xbcf271bc	-0.029595248
127	0x3c7c7123	0.015407833
128	0xbd766675	-0.060156304
129	0xbc34f34e	-0.0110443365
130	0xbd8775bf	-0.06614255
131	0xbbe268f1	-0.0069094826
132	0x3c1de4ed	0.0096371
133	0xbac65a8e	-0.0015133189
134	0xbddf984f	-0.109177224
135	0xbded3572	-0.115824595
136	0x3da0a33d	0.07843635
137	0x3e1a5b5a	0.1507391
138	0xbe12fb7f	-0.1435375
139	0x3d875a76	0.06609051
140	0xbdbed48f	-0.09317886
141	0x3d57494d	0.05256014
142	0x3e0bcf05	0.1365319
143	0x3db546f0	0.08851421
144	0xbdaa8bf9	-0.08327479
145	0x3d836b0f	0.06416904
146	0x3d6e4c33	0.058178138
147	0xbb1f85cb	-0.0024341221
148	0x3dc781ed	0.09741578
149	0xbd78d8b3	-0.060753535
150	0xbcbe6f7b	-0.023246517
151	0xbd52efb8	-0.051498145
152	0x3ce63145	0.028099665
153	0x3cee1a13	0.029065168
154	0x3c360329	0.011109152
155	0xbd72507d	-0.05915879
156	0xbd2c1eb3	-0.042021465
157	0x3d2ae8f0	0.041726053
158	0xbdbd7318	-0.09250468
159	0xbc86c653	-0.01645199
160	0xbb03819a	-0.0020066262
161	0xbd317c66	-0.043331526
162	0x3d47c504	0.048771873
163	0x3ba224d1	0.0049482365
164	0x3d909452	0.0705954
165	0x3b004d8a	0.0019577467
166	0xbd6d5b3b	-0.057948332
167	0x3da1ead0	0.07906115
168	0x3c44070f	0.0119645735
169	0xbd03ac4b	-0.032146733
170	0xbda5bf4c	-0.080931276
171	0x3d2ee19d	0.04269563
172	0xbdbdacf8	-0.09261507
173	0x3cb18797	0.0216711
174	0x3d79956a	0.060933508
175	0xbdb07183	-0.08615401
176	0xbd98d09f	-0.07461666
177	0xbdaa9489	-0.08329112
178	0x3da8a39d	0.08234332
179	0x3db19401	0.08670808
180	0xbdeb9a30	-0.11504018
181	0x3ca69645	0.020335326
182	0xbd8fb2ee	-0.0701655
183	0xbe5cc69c	-0.21560138
184	0xbd06a389	-0.032870803
185	0x3c5124dc	0.012765136
186	0x3d7b0326	0.0612823
187	0xbca8e9df	-0.02061933
188	0x3db511da	0.088412955
189	0x3da03d2f	0.0782417
190	0x3d958113	0.073000096
191	0xbdf79daa	-0.12090619
192	0x3dc582b4	0.0964407
193	0xbdc2ff94	-0.09521404
194	0x3d9f1d8a	0.07769306
195	0xbc8a06a8	-0.016848877
196	0xbdec0176	-0.11523716
197	0x39c597a1	0.0003768774
198	0xbd42a5c6	-0.047521375
199	0xbdf86d4d	-0.121302225
200	0xbd4dac24	-0.050212994
201	0xbc63c261	-0.013901324
202	0x3d64f17d	0.055894364
203	0xbd357c04	-0.044307724
204	0x3d1a7dd6	0.037717663
205	0x3a927433	0.0011173546
206	0x3ca0f69d	0.019648844
207	0x3c698e8d	0.014255178
208	0xbd8577a9	-0.06516964
209	0xbd902c14	-0.07039657
210	0xbcb58165	-0.022156427
211	0xbdd9fdfb	-0.10644146
212	0xbd39d37c	-0.045367703
213	0x3b455b6f	0.0030114313
214	0xbd67b773	-0.056571435
215	0xbd1a4d61	-0.03767145
216	0x3d39a2d6	0.045321308
217	0x3d017740	0.031607866
218	0x3c2d21a6	0.010567104
219	0x3d0c189d	0.03420316
220	0xbaa00b8e	-0.0012210475
221	0x3db35821	0.08757044
222	0x3ca968b2	0.020679805
223	0xbd905c72	-0.070488825
224	0xbd8943f3	-0.067024134
225	0xbd8db44a	-0.06919153
226	0xbc950e6e	-0.018195357
227	0x3d23a550	0.039952576
228	0xbcb61783	-0.022228008
229	0x3d2ffc95	0.04296549
230	0x3cf2255a	0.029558826
231	0x3da451e1	0.0802343
232	0x3b123d71	0.0022314454
233	0xbd675124	-0.056473866
234	0x3d3445f9	0.044012044
235	0xbd90c21b	-0.07068273
236	0xbc011e6e	-0.00788079
237	0xbd05806a	-0.03259317
238	0xbd29639a	-0.041354753
239	0xbd1a5da9	-0.037686978
240	0x3dc9c325	0.09851674
241	0x3d6cd134	0.0578167
242	0x3cf4343b	0.029810062
243	0x3dc3897e	0.09547709
244	0xbdcb6342	-0.09931041
245	0x3c5d491c	0.0135062
246	0x3d811a88	0.063038886
247	0x3d8562e0	0.065129995
248	0xbdb58625	-0.08863477
249	0x3d052010	0.03250128
250	0xbd871ecd	-0.06597672
251	0xbc2fd957	-0.01073297
252	0xbc179e32	-0.009254025
253	0xbd85e02d	-0.06536899
254	0xbda3f66d	-0.08005986
255	0xbd84f6f0	-0.06492412

conv_block_2.0.bias f4 [10]
0	0x3d5f0e08	0.05445674
1	0x3c278499	0.010224485
2	0x3cbfb33d	0.023400897
3	0x3da24831	0.07923926
4	0xbd85e7e4	-0.0653837
5	0xbd820acd	-0.06349716
6	0x3d7eebfa	0.062236764
7	0xbb44a045	-0.0030002755
8	0xbd4a605e	-0.04940831
9	0xbdbd9ff4	-0.09259024

conv_block_2.2.weight f4 [10, 10, 3, 3]
0	0x3d9dc696	0.07703893
1	0xbca30b4a	-0.019902844
2	0xbd25958a	-0.040425815
3	0xbd8608d4	-0.065446526
4	0xbd39fe19	-0.045408342
5	0x3cd50980	0.026005507
6	0xbd0f677b	-0.035010796
7	0x3d6467d2	0.055763073
8	0xbd1dd9a9	-0.038537655
9	0xbd22805e	-0.0396732
10	0x3d1cfed5	0.038328964
11	0xbcbf08bf	-0.0233196
12	0xbd4ad19d	-0.04951631
13	0x3c60a4bf	0.0137111535
14	0x3d7f0f41	0.062270407
15	0xbbc56485	-0.0060239458
16	0x3d3eb431	0.046558563
17	0x3d27f43e	0.041004412
18	0xbd14e925	-0.036355156
19	0xbcc9f8d2	-0.02465478
20	0xbcad81d2	-0.021180067
21	0xbd37c65c	-0.044866905
22	0x3d2f72c5	0.042834062
23	0x3d4fa0f3	0.050690603
24	0xbc5208eb	-0.012819509
25	0xbd651fb0	-0.055938423
26	0x3d3af053	0.045639347
27	0xbdb87276	-0.09006207
28	0x3d90899a	0.070574954
29	0x3d3e0df8	0.04640004
30	0x3d76f502	0.06029225
31	0xbc708b05	-0.014681582
32	0xbdb4b3ba	-0.088233426
33	0x3d805e2a	0.0626796
34	0xbd721cfb	-0.05910967
35	0x3c540174	0.0129398
36	0x3d749b45	0.05971839
37	0xbdc9be40	-0.098507404
38	0x3be53a31	0.0069954623
39	0xbd195fcb	-0.03744487
40	0x3d80c384	0.06287292
41	0xbd620381	-0.055179123
42	0x3d831313	0.064001225
43	0x3d869d79	0.06573004
44	0x3d6e34d1	0.05815584
45	0x3de4c8a0	0.11171079
46	0x3d24f858	0.0402759
47	0xbd9193b6	-0.07108252
48	0x3da94b89	0.0826636
49	0x3d0b7067	0.034042742
50	0xbcb5b250	-0.022179753
51	0xbd9b9d60	-0.07598376
52	0xbd505fd5	-0.050872643
53	0xbcdb2253	-0.026749766
54	0x3dcbdf2e	0.099546775
55	0x3d8fd389	0.07022769
56	0x3d9186f1	0.07105816
57	0x3d7f6fd8	0.062362522
58	0xbd9e15d7	-0.07719009
59	0xbd6f4354	-0.05841382
60	0xbd7ac9ac	-0.061227486
61	0xbd82a26d	-0.063786365
62	0x3d7a0e24	0.06104864
63	0x3cb9c112	0.02267507
64	0x3d9506af	0.072766654
65	0xbc96c4bb	-0.018404355
66	0xbdd466ac	-0.103711456
67	0xbd30ecbd	-0.04319452
68	0x3d76c3d1	0.06024534
69	0x3d61a2ed	0.05508702
70	0x3cabca69	0.02097054
71	0xbd30802a	-0.043090977
72	0xbde306ce	-0.11085282
73	0xbd0b9a18	-0.034082502
74	0x3d611bfa	0.05495832
75	0xbd2e26fa	-0.04251764
76	0x3d9b2647	0.0757566
77	0x3cebc644	0.028781064
78	0xbce62001	-0.028091433
79	0x3dd076f2	0.10178937
80	0xbd0abd22	-0.033871777
81	0xbb658160	-0.003501974
82	0xbd24762c	-0.04015176
83	0xbdccc6a0	-0.09998822
84	0x3c8b3b30	0.016995996
85	0x3cf98754	0.030460037
86	0xbd59619b	-0.0530716
87	0x3d846e05	0.06466297
88	0xbdc1a79a	-0.094557956
89	0xbdd019fc	-0.10161206
90	0xbe07b45c	-0.13252395
91	0xbdcf157b	-0.10111519
92	0xbd78756b	-0.060658854
93	0xbda78794	-0.08180156
94	0xbc7a905b	-0.015293206
95	0xbe133868	-0.14376986
96	0xbbd3188b	-0.0064421347
97	0xbd0c2fb5	-0.034225184
98	0x3af222a2	0.0018473456
99	0x3da4d2b6	0.080480024
100	0x3cc9a8c3	0.024616605
101	0xbdcfc46f	-0.101448886
102	0xbe0643d2	-0.13111809
103	0xbdfe659e	-0.12421726
104	0xbe1962a9	-0.14979042
105	0xbb0ea26b	-0.002176429
106	0xbdabb971	-0.083849795
107	0xbbd1b96f	-0.0064002792
108	0x3d5be23e	0.05368256
109	0xbce68678	-0.028140292
110	0xbc89b51c	-0.016809992
111	0x3cc9c17c	0.024628393
112	0xbd364d85	-0.044507522
113	0x3d3bc341	0.045840506
114	0xbdb297c2	-0.08720352
115	0x3d18491c	0.037179098
116	0xbdc47358	-0.095923126
117	0xbdf9c3b2	-0.12195529
118	0xbd6ef3d6	-0.05833801
119	0x3c7b8e0c	0.015353691
120	0x3cea9643	0.028636103
121	0xbce58c3a	-0.028020967
122	0xbd7b991f	-0.061425325
123	0xbd4b3cb3	-0.049618434
124	0xbdc1e8af	-0.09468209
125	0xbd7f0385	-0.062259216
126	0xbbeea770	-0.0072831437
127	0x3db7b449	0.089699335
128	0x3d7caed2	0.06169016
129	0xbdacbf78	-0.08434957
130	0x3c4af0da	0.012386525
131	0xbd589e65	-0.05288543
132	0xbc891324	-0.01673276
133	0xbdab92b5	-0.083775915
134	0x3ce07acc	0.027402304
135	0xbd53ba85	-0.05169155
136	0x3da33ded	0.07970796
137	0x3db97cc7	0.090570025
138	0xbd94ac4a	-0.07259424
139	0xbdcb0f73	-0.09915056
140	0x3d1d60bc	0.03842233
141	0xbcef712b	-0.029228767
142	0x3ce37dbd	0.027769918
143	0xbdc40d82	-0.09572889
144	0xbc8343a1	-0.016023459
145	0xbe1b3b57	-0.15159355
146	0xbdd71adf	-0.10503172
147	0xbdf9d492	-0.12198748
148	0xbcb9cdfa	-0.022681225
149	0xbd878f1c	-0.06619093
150	0xbe0d0e6f	-0.13775037
151	0xbdd7f89e	-0.10545467
152	0xbdb63ac0	-0.088979244
153	0xbde6be3f	-0.11266755
154	0xbb49f62a	-0.0030816891
155	0x3c83aecf	0.016074566
156	0xbcfe27dc	-0.031024866
157	0xbd5bb7ad	-0.053641964
158	0xbc8f1149	-0.017464297
159	0xbdb3e806	-0.08784489
160	0xbd993af5	-0.07481948
161	0xbc884f62	-0.016639415
162	0x3d8baddb	0.0682027
163	0x3bb0d8df	0.005396947
164	0x3d56196d	0.05227034
165	0xbd29eafa	-0.041483857
166	0xbce5decf	-0.028060345
167	0xbdcd8107	-0.10034376
168	0x3db2d3fb	0.08731838
169	0x3e0314b2	0.12800863
170	0xbb1023c4	-0.0021993974
171	0x3d892997	0.06697386
172	0x3db09363	0.08621862
173	0x3d567602	0.052358635
174	0x3d5e5ce2	0.0542878
175	0xbdcd8394	-0.10034862
176	0xbdcadab8	-0.099049985
177	0xbda5b1f8	-0.080905855
178	0x3d070c12	0.032970496
179	0xbdbabac5	-0.09117655
180	0xbe3a676f	-0.1820352
181	0xbe1347d6	-0.14382872
182	0xbe374896	-0.17898783
183	0xbd482375	-0.04886194
184	0xbd8154d5	-0.063150086
185	0xbdfcf132	-0.12350692
186	0x3e0f7def	0.14012884
187	0x3b21fa43	0.0024715818
188	0xbb073fea	-0.002063746
189	0xbc9d6384	-0.019212492
190	0xbcf2da82	-0.029645208
191	0xbe012878	-0.12613094
192	0xbe183291	-0.1486304
193	0xbe58f658	-0.21187723
194	0xbe02d6d9	-0.1277727
195	0x3db96284	0.090519935
196	0x3cbd4fbd	0.023109311
197	0xbdc56db6	-0.09640066
198	0xbde29b8b	-0.11064824
199	0xbe0e9815	-0.13925202
200	0xbdc0820d	-0.09399805
201	0xbb155145	-0.0022784036
202	0xbe02bb3d	-0.12766738
203	0xbe0d934b	-0.13825719
204	0x3c1d4791	0.009599582
205	0xbddaead0	-0.10689318
206	0xbdf35b62	-0.11882664
207	0xbe20be26	-0.15697536
208	0xbdd33605	-0.10313038
209	0x3cbdb226	0.023156237
210	0xbcec30a5	-0.02883179
211	0xbdb961a5	-0.09051827
212	0xbd4a912d	-0.049454857
213	0x3c4704a4	0.0121471025
214	0xbd7de961	-0.061990146
215	0xbe1d2c9c	-0.15349048
216	0xbd850225	-0.0649455
217	0xbd92a8a5	-0.07161073
218	0xbb2f7017	-0.0026769692
219	0xbdc59d80	-0.09649181
220	0xbbed0a95	-0.0072339275
221	0xbd1de2b6	-0.038546287
222	0x3dd3db44	0.10344556
223	0x3daf7882	0.08567907
224	0x3d7aca12	0.061227866
225	0x3b9b5d2f	0.004741333
226	0xbd0cc2c8	-0.034365445
227	0x3d30c970	0.043160856
228	0xbd9534b6	-0.072854444
229	0xbd383169	-0.044968996
230	0x3b4b65e9	0.0031036085
231	0xbccc06af	-0.02490553
232	0xbde85a2f	-0.11345326
233	0x3d2eb262	0.042650588
234	0xbab40196	-0.0013733383
235	0xbe1ccc6a	-0.15312353
236	0xbd6f6981	-0.058450226
237	0xbd655948	-0.05599335
238	0xbd9c8cc9	-0.0764404
239	0xbd929d19	-0.0715887
240	0x3e02b614	0.1276477
241	0x3ce5e08b	0.028061172
242	0xbd8f8456	-0.07007663
243	0xbd3b279f	-0.045692082
244	0x3d1e2aea	0.038615145
245	0x3c4ad00c	0.012378704
246	0xbbaba5b3	-0.0052382587
247	0xbce2fd8e	-0.027708795
248	0xbd4c92f8	-0.049944848
249	0xbcd7014d	-0.026245737
250	0xbd69007a	-0.05688522
251	0x3c0853c5	0.008320753
252	0x3cf28a8a	0.029607076
253	0x3dd96a01	0.10615922
254	0xbcc311e3	-0.02381224
255	0xbba03130	-0.004888676

conv_block_2.2.bias f4 [10]
0	0x3d352bd8	0.044231266
1	0x3e265e5c	0.16246933
2	0x3e01e736	0.12685856
3	0xbdc4a4c1	-0.09601737
4	0xbba177b2	-0.004927599
5	0xbd619532	-0.055073924
6	0xbd3e5a6b	-0.046472948
7	0x3dbaa82e	0.09114109
8	0xbd2cd945	-0.042199392
9	0xbd9a9b0b	-0.07549103

classifier.1.weight f4 [3, 1690]
0	0xb9bf97df	-0.00036543512
1	0x3d3aeabc	0.045634016
2	0x3d0592bd	0.032610644
3	0x3d3112e7	0.043230917
4	0x3c8c628a	0.01713683
5	0xbc9f174b	-0.019420287
6	0x3c6fd55a	0.014638269
7	0x3ca6db0c	0.020368122
8	0x3c6088d9	0.013704502
9	0x3c4dc060	0.012558073
10	0xbbe73ecd	-0.007057047
11	0x3c18a097	0.009315631
12	0x3ced8a68	0.028996661
13	0x3bb0e44f	0.0053983103
14	0x3cc72217	0.024308247
15	0x3c0c763a	0.008573109
16	0x3c66a066	0.014076328
17	0xbc404f12	-0.011737602
18	0xbd171d3f	-0.036893126
19	0xbce2b3c5	-0.027673611
20	0xbaedb868	-0.0018136622
21	0xbc553836	-0.01301389
22	0xbb5d8aa3	-0.0033804558
23	0xbc901f3a	-0.017593015
24	0x3cbbc698	0.022921845
25	0x3a533c67	0.0008058012
26	0x3a562920	0.000816958
27	0x3a5f126e	0.0008509521
28	0xbcc211db	-0.023690155
29	0xbc94c803	-0.01816178
30	0xbc36b28a	-0.0111509655
31	0xbbeeb703	-0.0072850003
32	0xbd033327	-0.032031205
33	0xbc120c0c	-0.008914005
34	0xbd05ab90	-0.032634318
35	0x3b747f79	0.0037307425
36	0x3bf2dd5d	0.0074116425
37	0xbc8258ac	-0.015911423
38	0xbcc1913f	-0.023628829
39	0xbce58481	-0.028017284
40	0x3c0258dd	0.007955757
41	0x3c9b1082	0.01892877
42	0x3cc72397	0.024308963
43	0x3bc7bf42	0.0060957978
44	0x3cb3b7da	0.021938253
45	0x3d06fd62	0.03295649
46	0x3ba3c7d3	0.004998186
47	0xbc12cf4c	-0.008960556
48	0xbcae4bc3	-0.02127636
49	0x3c59379b	0.013257886
50	0xbaaaf30b	-0.0013042403
51	0xb9b4f22c	-0.00034512707
52	0xbc2761de	-0.010216204
53	0x3caf22da	0.021378923
54	0xbbc23ae1	-0.005927429
55	0xbb0012d9	-0.0019542484
56	0x3ceececc	0.029151343
57	0xba9f7cd6	-0.0012167941
58	0x3d5df4c3	0.0541885
59	0x3d0b4492	0.03400094
60	0x3bed2a09	0.007237677
61	0x3d11828c	0.03552489
62	0x3c2bbd26	0.010482108
63	0x3bdb6479	0.006695327
64	0xbcc47fca	-0.023986716
65	0xbcd00feb	-0.025398215
66	0x3c8457ec	0.016155206
67	0x3d31560d	0.043294955
68	0x3c92f230	0.01793775
69	0x398e504a	0.0002714417
70	0x3cad0cce	0.02112427
71	0x3d26802b	0.040649574
72	0x3c0013cf	0.007817223
73	0xbbf8f70c	-0.0075978097
74	0xbb34bbff	-0.0027577875
75	0x3c3b5e90	0.01143612
76	0x3c855a02	0.01627827
77	0x3bd2f59b	0.00643797
78	0x3c4f0165	0.01263461
79	0x3ceef634	0.029170133
80	0x3d10cda4	0.035352364
81	0xbbb209a7	-0.0054332796
82	0xbbbd9c51	-0.0057864566
83	0x3cb10877	0.021610482
84	0x3cb56811	0.02214435
85	0x3c57ee62	0.0131793935
86	0xbc7c4ac4	-0.015398685
87	0x3d03a3a6	0.03213849
88	0xba51e36a	-0.00080066046
89	0x3ca33551	0.019922884
90	0x3b849188	0.004045669
91	0x3ccbd11d	0.024879986
92	0xbbd3fe38	-0.006469514
93	0x3c13476a	0.008989194
94	0x3cd6d848	0.026226178
95	0x3cf46cb0	0.029836982
96	0x3c1b4cca	0.009478757
97	0x3d3a9dad	0.045560528
98	0x3ca6f37e	0.020379778
99	0x3bca5857	0.0061750817
100	0x3c4b82e0	0.01242134
101	0x3ca50b00	0.020146847
102	0x3c290fa9	0.010318675
103	0x3c8fea75	0.017567853
104	0x3b2a60bf	0.0025997607
105	0x3c81dcfa	0.01585244
106	0x3c286504	0.01027799
107	0x3d6c4ed0	0.05769235
108	0x3cdd22f4	0.026994206
109	0x3c704304	0.014664415
110	0x3d2e89a1	0.042611722
111	0x3d0dd5f0	0.034627855
112	0x3d076e37	0.033064093
113	0x3c17e115	0.009269972
114	0x3cd5f099	0.026115702
115	0x3b8abb3a	0.004233745
116	0xbb2e40be	-0.0026588882
117	0x3bbbe48b	0.0057340316
118	0x3d04570a	0.03230957
119	0x3d5e8622	0.054327138
120	0x3cf6845a	0.030092407
121	0x3d084846	0.03327205
122	0x3d326108	0.043549567
123	0x3c9e7448	0.019342557
124	0x3cef215e	0.029190715
125	0x3c5d9fc3	0.01352686
126	0x3cc166a7	0.023608519
127	0xbb1d6545	-0.002401666
128	0x3c3cd1b2	0.011524605
129	0xbac9f02b	-0.0015406659
130	0xbcd4fca6	-0.025999378
131	0xbc502683	-0.012704494
132	0xbb397de5	-0.0028303799
133	0x3bb73c57	0.00559191
134	0x3cb6a621	0.022296013
135	0x3cd73320	0.026269495
136	0x3d4a0772	0.049323507
137	0x3bf7e1eb	0.0075647733
138	0x3ce372d1	0.02776471
139	0xbbb4b7d2	-0.005515077
140	0x3c112c4d	0.00886066
141	0x3ca6d5c4	0.020365603
142	0xbc3c12aa	-0.011479059
143	0x3bd8a5c6	0.0066115586
144	0xbcae3cf4	-0.0212693
145	0x3ca3a1d6	0.01997463
146	0x3bfd8ab1	0.0077374806
147	0x3d1c360e	0.038137488
148	0x3d242717	0.04007634
149	0x3c1a64df	0.009423464
150	0x3c48a498	0.012246273
151	0x3cab9b7c	0.020948164
152	0xbbc7dea3	-0.0060995384
153	0x3d24777d	0.040153015
154	0x3c04ad88	0.008098014
155	0x3cfff800	0.031246185
156	0xbd104798	-0.035224527
157	0xbd07bc69	-0.033138666
158	0xbbf90020	-0.007598892
159	0xbc9b2534	-0.018938638
160	0x3cf43569	0.029810624
161	0x3ceebefb	0.029143801
162	0x3d1a575a	0.03768096
163	0xbc2f570b	-0.010701905
164	0x3c5f29d0	0.013620809
165	0x3ca84af8	0.02054356
166	0x3d29d761	0.041465167
167	0x3bb6a88b	0.005574291
168	0x3c85eebb	0.016349187
169	0xbd60ef69	-0.05491582
170	0xbd991356	-0.07474391
171	0xbdb4adae	-0.08822189
172	0xbd35198b	-0.044213813
173	0xbcc2fc8e	-0.023802068
174	0x3bea1512	0.007143625
175	0x3c6867e2	0.014184924
176	0x3c824147	0.015900267
177	0xbce81037	-0.028328044
178	0xbd68a9d8	-0.0568026
179	0xbd4af930	-0.04955405
180	0xbdd72907	-0.10505872
181	0xbd52a58f	-0.05142742
182	0xbd843218	-0.06454867
183	0x3cba12b2	0.022713993
184	0xbcf7a2b8	-0.030228958
185	0xbd491f4f	-0.049102124
186	0xbd60485a	-0.0547565
187	0xbd5c1cdf	-0.05373847
188	0x3d314f12	0.043288298
189	0x3ce22bdf	0.02760881
190	0xbd23a795	-0.03995474
191	0xbd068d5a	-0.032849647
192	0xbbd8b71c	-0.006613625
193	0xbcb7e68b	-0.022448799
194	0xbc82eba4	-0.015981503
195	0x3b7fb272	0.0039016274
196	0x3cc4dd0f	0.02403119
197	0x3c1f1b5f	0.009711116
198	0xbd819ad3	-0.063283585
199	0xbdb40b8d	-0.08791266
200	0xbd833010	-0.064056516
201	0x3be22e2f	0.006902478
202	0xbc6f2d5d	-0.014598218
203	0xbd769f77	-0.06021067
204	0xbd1face5	-0.038983244
205	0xbcd708f8	-0.026249394
206	0x3c88c97a	0.016697634
207	0x3db7b222	0.08969523
208	0xbce67356	-0.028131168
209	0xbd2dd835	-0.04244252
210	0xbc9f32ac	-0.019433342
211	0xbcdcf2ed	-0.026971305
212	0xbd690167	-0.056886103
213	0xbe0fa6c8	-0.14028466
214	0xbdeb1385	-0.114783324
215	0xbdaf3dac	-0.08556685
216	0xbdf2c251	-0.11853469
217	0xbdb62a37	-0.088947706
218	0xbdf7e761	-0.12104679
219	0xbd1c3505	-0.0381365
220	0x3d46ebbe	0.048564665
221	0xbc5555c5	-0.013020937
222	0xbd055ee0	-0.032561183
223	0x3cb1fd2e	0.02172717
224	0xbc939cb1	-0.018019052
225	0xbd652a5c	-0.0559486
226	0xbdfb7b72	-0.12279405
227	0xbe0a5031	-0.13507153
228	0xbdaa00b1	-0.08300913
229	0xbd861c89	-0.065484114
230	0xbde86cb7	-0.11348861
231	0xbdcb4aa7	-0.09926348
232	0xbd1ced45	-0.038312215
233	0x3cf17cc9	0.029478448
234	0x3c909874	0.01765082
235	0xbd1bf69a	-0.038076974
236	0xbdb62616	-0.08893983
237	0xbd92a0ec	-0.071596
238	0xbda90856	-0.08253543
239	0xbdec9dc0	-0.11553526
240	0xbd1083f5	-0.035282094
241	0xbbc3db62	-0.00597708
242	0xbd18d88e	-0.037315898
243	0xbd97f78d	-0.074202634
244	0xbdc7512d	-0.0973228
245	0xbcf82e04	-0.03029538
246	0x3ba7df75	0.0051230737
247	0xbd1f568c	-0.038900897
248	0xbc3d6bbc	-0.01156133
249	0xbcbf396e	-0.023342814
250	0xbcd5d4d4	-0.02610246
251	0xbd854b2d	-0.06508479
252	0xbd6dd2e2	-0.05806244
253	0xbdbe9ed5	-0.093076386
254	0xbd9dcf79	-0.07705588
255	0xbda2c68c	-0.07948026

classifier.1.bias f4 [3]
0	0x3da3f995	0.08006588
1	0xbd882eb2	-0.066495314
2	0xbd20f33a	-0.03929446
